going_modular/going_modular/models/05_going_modular_script_mode_tinyvgg_model.pth (torch, 37218 bytes, 10 tensors)

conv_block_1.0.weight f4 [10, 3, 3, 3]
000000 a1 73 49 3d 82 1d 8c 3d ea fe fc bd 5e bc 2e bd
       0.049182538 0.06841566 -0.123533085 -0.04266011
000010 17 fd e4 bd 60 6f b4 bd cb 65 23 3e 5f f7 fd bd
       -0.111810856 -0.088103056 0.159568 -0.12400698
000020 40 27 29 be ec df 82 bc ed 0d 85 3d e7 ed 16 bc
       -0.16518879 -0.015975915 0.06496797 -0.009211994
000030 94 7a c2 bd 32 b1 1a be ee ad 80 3d 0b 85 d6 3d
       -0.09496036 -0.15106657 0.062831745 0.10474595
000040 5d d1 f7 3d a1 58 cb bd 4f 1f 00 3e 81 dc d0 bd
       0.1210048 -0.09929014 0.12511943 -0.10198308
000050 00 79 0a 3e 65 39 d9 bd ff e9 a8 3d 82 7e 6f 3d
       0.1352272 -0.1060665 0.08247756 0.058470257
000060 8c a4 01 bd 6c 2a 23 3e eb e8 2f 3e 18 04 2c be
       -0.031651065 0.15934151 0.17178695 -0.16798437
000070 58 4e 5f bd 78 77 58 3d 88 ce 8c bc 98 01 4d bd
       -0.054518074 0.05284831 -0.017188326 -0.050050348
000080 f9 88 a4 bd 5a b7 f1 3d 90 91 ed 3c 29 52 05 3e
       -0.08033938 0.1180255 0.029000074 0.13019623
000090 c0 4c 6e 3c 42 8f ca bd e4 82 5d 3d 20 18 45 bd
       0.014544666 -0.098906055 0.054079905 -0.04811871
0000a0 ca 67 0e be 48 fa fa 3c a1 21 1e be d8 cc e9 3c
       -0.1390678 0.030636922 -0.15442516 0.02854006
0000b0 8c 94 1e 3d 2d a3 e5 bd f0 6b 7a bd 74 77 09 bd
       0.038715884 -0.11212764 -0.061138093 -0.033561185
0000c0 77 7b 0d 3e cc 8c 09 be 40 53 b6 bb 95 10 21 be
       0.1381663 -0.13432616 -0.0055641234 -0.15728982
0000d0 d3 e1 33 be ea b7 ad 3d 7e ba 47 3c 30 51 81 bc
       -0.17566614 0.084823444 0.012190459 -0.015785784
0000e0 92 21 67 3d b4 f1 31 bd 18 e0 11 be 83 0c 37 3e
       0.0564285 -0.043443397 -0.14245641 0.17875867
0000f0 1f 56 c8 3c 55 2a 46 3d 34 f8 98 3d c4 27 c5 bd
       0.024455128 0.048380215 0.07469216 -0.09626725
000100 81 bc c6 bd 4a b4 0d be 10 7a 25 3d 8e 4f 6c bd
       -0.09703923 -0.13838306 0.04039961 -0.057693057
000110 39 c0 e9 bb 54 71 9e bd 3a a8 b0 3d 31 12 02 be
       -0.0071335104 -0.077364594 0.08625837 -0.12702252
000120 df fc 1e 3e 14 0f ee 3d 1b e4 20 bd fc 53 36 be
       0.1552615 0.1162397 -0.03928004 -0.17805475
000130 aa f0 5c bd e6 e7 d6 3c 96 9d 31 bd 88 67 cc 3d
       -0.053940453 0.026233625 -0.043363176 0.099806845
000140 46 a8 16 3e ac 8b 38 3e af 08 12 bd bf e3 3c 3e
       0.14712629 0.1802203 -0.035652813 0.18446253
000150 c7 05 8d bc f8 3b 1c be b9 a8 99 bd 3b 5e aa 3d
       -0.017214669 -0.15257251 -0.075028844 0.08318754
000160 d4 25 1e be 6c cb 09 3e ae c8 61 bd 77 f6 3e be
       -0.15444118 0.13456506 -0.055123024 -0.18648706
000170 fd 7d 7b bd 6b 36 3c be 5a 96 a0 3c 29 80 8d bd
       -0.06139945 -0.18380134 0.019602943 -0.0690921
000180 7f f7 1e 3d 3f c7 b4 ba bf c4 af 3d 6d 18 09 3e
       0.03881025 -0.001379229 0.08582448 0.13388224
000190 57 e3 16 be 89 2a 6a 3d 53 98 d7 3b 94 6a 0a be
       -0.14735161 0.05716947 0.0065794378 -0.13517219
0001a0 15 1d 03 bd f6 9c 2e 3e 1f 51 24 3e f3 a5 a0 bc
       -0.032010157 0.17052063 0.1604657 -0.01961038
0001b0 ee 62 ad bd b5 e4 50 bd 00 6f 16 3e a0 f8 cf bd
       -0.08466135 -0.050999362 0.1469078 -0.10154843
0001c0 5e 1e 4e 3d a8 e2 42 3d 1a af b1 3c 64 3f cd bc
       0.05032193 0.047579437 0.02168994 -0.025054641
0001d0 e1 73 9d 3d 60 e3 ba 3b 6b 70 df 3b 7a 65 5a bd
       0.07688118 0.0057033747 0.006818821 -0.05331943
0001e0 1a 84 32 3e 10 93 1c be 9d ce 8e 3d 48 cd 39 be
       0.17433205 -0.15290475 0.06973002 -0.18144715
0001f0 a7 d9 2c 3e 12 bf 86 bd 9c 02 9e 3d 23 f8 2d be
       0.16879903 -0.065794125 0.077153414 -0.16989188
000200 58 86 31 be c7 bd 99 3d d5 0b d5 bd 76 ed bd 3d
       -0.17336404 0.075069 -0.104026474 0.09273808
000210 ec b2 d8 bd 09 87 cc 3d b9 24 e6 3d b5 82 0d 3d
       -0.10581002 0.099866934 0.11237473 0.03454848
000220 91 8d 16 be 6e 9f c6 3c bf 38 b9 bd 47 6d 1e be
       -0.14702441 0.024245944 -0.090440266 -0.15471373
000230 ab db 25 be 6f e4 ea 3c 48 cd 1c 3e 57 02 3e bc
       -0.16197078 0.028673379 0.15312684 -0.011597238
000240 df 44 79 3c 4a 9b 02 3e 02 06 f5 3d 05 22 2b bd
       0.015214174 0.1275455 0.119640365 -0.04178049
000250 9f 92 0b 3e 6c 04 08 3e c0 69 83 3d b4 22 98 3d
       0.1363015 0.13282937 0.064166546 0.07428494
000260 c0 67 45 be be 71 ef 3d 72 49 3d be 55 19 48 bd
       -0.19277859 0.116916165 -0.18485048 -0.048852284
000270 8f 09 4a bc 17 1e c1 bd b2 f4 1c 3d f5 43 37 bd
       -0.0123313805 -0.09429567 0.038319297 -0.044742543
000280 36 ff 76 3d 20 e0 cf 3d f0 73 a0 3d c6 54 2a be
       0.060301982 0.1015017 0.07834613 -0.16633901
000290 94 00 17 bd d1 49 d5 bc 17 a0 44 3e cf 3a 33 3e
       -0.036865786 -0.026036175 0.19201694 0.17502902
0002a0 34 57 2d 3e 8d 95 dc bd d3 c1 f9 3d 5b 6b 94 3b
       0.16927797 -0.10770712 0.12195172 0.0045293993
0002b0 53 c8 13 3d 7c 8e a0 3d c4 f4 14 3e e6 e3 99 3c
       0.036079716 0.07839677 0.14546496 0.018785428
0002c0 39 42 9e bd 43 61 1e bd 68 d0 e8 3b b4 57 ab bd
       -0.07727475 -0.038666975 0.007104922 -0.083663374
0002d0 34 39 a5 bc 65 fd 80 bd 28 ea 4a 3d 6a 87 03 3e
       -0.020168878 -0.06298331 0.049539715 0.12844625
0002e0 df f2 42 3e 59 12 0c 3e 3a 74 18 3e 9e 24 ea 3c
       0.1903796 0.13678874 0.14888087 0.028581914
0002f0 9b c0 3a 3d 70 32 29 3e ea c5 2d be 00 81 39 3e
       0.04559384 0.16523147 -0.1697003 0.18115616
000300 aa b8 4f 3c 95 3f b0 3d 1a 96 34 3e 11 d5 b2 3d
       0.012678305 0.08605877 0.17635384 0.087320454
000310 6c d3 23 3e 04 45 00 be bb 6b ac bd b1 82 b2 bc
       0.1599862 -0.12526327 -0.084189855 -0.021790834
000320 59 7b bb bd ac 9e 0b 3e 2c bb 79 3d bc 10 ee bc
       -0.09154386 0.13634747 0.060969517 -0.029060714
000330 0b 2c 2c be a3 0c da 3c 78 96 59 bd b1 98 e2 3b
       -0.16813676 0.026617354 -0.053122014 0.006915175
000340 e8 62 f4 3d 5a 6f c2 3d de e9 29 3e 61 3b 34 be
       0.11932927 0.09493895 0.1659312 -0.17600776
000350 91 3b 4e bd 20 ad 79 3d df 46 2d 3e fc 4a c3 3d
       -0.050349776 0.06095612 0.16921566 0.095357865
000360 47 0e d6 bd df f4 31 bd 5c 55 14 be 87 67 31 bc
       -0.10451942 -0.043446418 -0.14485687 -0.0108279055
000370 a1 47 14 3e 80 da 44 be 86 03 cb bd 46 c2 ed 3d
       0.1448045 -0.19223976 -0.099127814 0.1160932
000380 d1 8c 26 3e 04 ed f6 bd d3 e5 35 be cf 30 ef bd
       0.16264655 -0.12056926 -0.17763452 -0.116792314
000390 e4 cb 08 bd 2e 2d e7 3d 6f a8 c7 3d 1b 94 f1 bd
       -0.03339757 0.11287914 0.09748923 -0.11795827
0003a0 95 ea de bd 49 93 5d bd 8c 81 2f be 0f 8d 95 3d
       -0.10884587 -0.05409554 -0.17139262 0.073022954
0003b0 e7 49 0c 3e c5 78 11 bd 9b aa bb bd 94 72 cc 3d
       0.13700067 -0.035515565 -0.091634 0.099827915
0003c0 58 51 6b 3d a6 c0 82 3d fe 9c d4 bd b4 99 08 bd
       0.057450622 0.06384401 -0.103815064 -0.033349708
0003d0 44 32 14 be ea 44 06 3d 2c 15 75 bc 03 4d 3c 3e
       -0.144723 0.032780565 -0.014958661 0.18388753
0003e0 94 63 02 bd f8 f6 d7 3d 6c bf 8e bd 03 37 d9 3d
       -0.031833246 0.105451524 -0.069701046 0.10606196
0003f0 d7 6b 78 3d 6f 8e 17 be 98 e7 c2 3d c3 a9 e1 bd
       0.06064972 -0.14800428 0.09516829 -0.110187076

conv_block_1.0.bias f4 [10]
000000 ba d2 1f be ae 68 3c be 76 36 ac 3d 39 7b 0e be
       -0.1560773 -0.18399307 0.08408825 -0.13914193
000010 e5 f7 e9 bd de fe 3f 3c c6 48 3e 3e e5 80 d3 3d
       -0.11424235 0.01171848 0.18582448 0.10327319
000020 b5 a7 b2 bd 79 49 48 bd
       -0.08723394 -0.048898194

conv_block_1.2.weight f4 [10, 10, 3, 3]
000000 86 43 a4 3d b6 9f 9e bd 84 63 de bc f5 14 63 bc
       0.080206916 -0.07745306 -0.027147062 -0.013859977
000010 2e 68 28 bb fd 47 37 3c 7e a9 5a 3d ef 85 10 3d
       -0.0025696862 0.011186597 0.053384297 0.03528398
000020 c4 e7 8d 3d bc 78 d1 3c 3e f6 78 3d ad cb bc 3d
       0.069289714 0.025570266 0.06078171 0.092185356
000030 87 4d 9a bd ca c8 05 bd a0 43 8f 3c 7f 2a b3 3d
       -0.075343184 -0.03266219 0.0174883 0.0874834
000040 f0 26 0d bc 48 d6 27 3c d3 53 dc bd b6 78 0e bd
       -0.00861524 0.01024396 -0.10758176 -0.034783088
000050 df bc 51 bd c1 fa 00 bd c3 94 8a bd 7f 7f cf bd
       -0.051205512 -0.031489138 -0.06766655 -0.1013174
000060 f5 9e c6 3d 61 8d 89 bd 41 7a d4 bd 6d 21 5b bc
       0.096982874 -0.06716419 -0.103748806 -0.013374669
000070 cc a0 dd bd 1d 66 9c 3d 3c 24 52 bd f2 4f af bb
       -0.10821685 0.07636664 -0.051304087 -0.0053501064
000080 ab f7 ca bd 05 8c c5 38 6a 78 bc 3d 85 5b 8c bd
       -0.0991052 9.419773e-05 0.09202655 -0.068533935
000090 2a fd a1 3d de 3f 91 bd d4 61 a3 3c bc 05 e1 3c
       0.07909615 -0.0709226 0.019944109 0.027468555
0000a0 82 f1 12 bd cb 70 7c bd 65 82 ad 3d ea 81 bc bd
       -0.03587485 -0.061631005 0.084721364 -0.09204467
0000b0 54 92 db bc fc 76 99 3d 5c 79 a8 3d 05 20 86 bd
       -0.026803173 0.074933976 0.082262725 -0.06549076
0000c0 19 c5 10 3d e2 fb 47 3d ba f6 51 3d 36 1b f1 bc
       0.035344217 0.0488242 0.051260687 -0.02943192
0000d0 5b 19 56 3d 33 1a 9b bd 8a 71 8f bd 98 39 b4 bd
       0.052270275 -0.075733565 -0.07004078 -0.08800048
0000e0 d9 99 aa 3d 6a 66 9c 3d d8 ad 48 3c 63 92 b5 bd
       0.08330125 0.076367214 0.012248479 -0.08865812
0000f0 88 36 7f bd 97 86 70 3c 46 ec 61 bd 91 ca ab bd
       -0.062307864 0.014680526 -0.05515697 -0.08388246
000100 98 f8 be bc c9 a4 8a 3d 6c d4 c6 3d fe f9 24 3d
       -0.023311898 0.067697115 0.09708485 0.040277474
000110 83 03 25 3b 4e 7f cd bd ba 0f 13 bd 5a 7f b9 3b
       0.0025179095 -0.10034047 -0.03590367 0.0056609334
000120 50 71 83 bd 5f ae 6f bd 07 6b 96 3d 2c 67 c8 bd
       -0.06418097 -0.058515903 0.073446326 -0.097853035
000130 11 6e a3 bd d9 67 ab 3d 50 14 1d 3c ac f6 9f bd
       -0.07979978 0.08369417 0.009587362 -0.07810721
000140 f5 90 9d 3d 92 26 7a 3c 05 95 8f 3d 1c 34 4b 3d
       0.07693664 0.015267985 0.07010845 0.049610242
000150 b5 ca be bd b0 1e 0c bd 2c 7a 3b bd 85 ca d1 bd
       -0.09316007 -0.034208953 -0.04577081 -0.10243706
000160 43 65 ec bd 5e 4c 2e bd 20 6c c3 3d 83 b0 c4 3d
       -0.11542752 -0.0425533 0.095421076 0.096039794
000170 8c 23 10 3c bd fb 0c bd 8a 3e 10 bd 69 2e 53 3c
       0.008797538 -0.034419764 -0.035215892 0.012889483
000180 b1 a1 a6 bc 52 76 91 3d 89 39 a8 3d 9a cb d5 bd
       -0.020340772 0.07102646 0.08214099 -0.104392245
000190 00 43 9a bc 1c e6 e1 3c a5 a3 a8 3d fb 87 c4 3d
       -0.018830776 0.027575545 0.08234338 0.09596249
0001a0 39 82 b8 bd bc 49 c8 3c ed 05 c7 3d 35 58 a0 3d
       -0.09009213 0.024449222 0.09717927 0.07829324
0001b0 79 96 7c 3d d5 92 09 3d 60 76 af bd 7f 46 60 3d
       0.06166694 0.033587296 -0.085675 0.05475473
0001c0 99 59 b1 3c 68 c5 52 bd 1a 45 7e 3d 32 89 a9 bd
       0.021649169 -0.051457793 0.06207762 -0.08278121
0001d0 74 b9 46 bd 3b 14 43 bd b1 ca 24 ba f8 37 9a 3d
       -0.048516706 -0.047626715 -0.0006286307 0.075302064
0001e0 e5 29 dc bc f5 96 b2 bd 4f a4 1a 3d d8 68 e9 3d
       -0.026875446 -0.08720199 0.037754353 0.113969505
0001f0 0e 3f 7f b7 b4 be b0 bc 41 c6 92 bc 60 84 24 bd
       -1.52138655e-05 -0.02157531 -0.0179168 -0.040165305
000200 8d 5c 50 3d 18 80 3d 3c cd 01 97 bc 66 c2 b6 bd
       0.050869513 0.011566184 -0.018433476 -0.08923797
000210 97 b2 1c 3d 74 39 e5 3c 62 f8 54 3d dc 24 0c 3d
       0.038256254 0.027981497 0.05199469 0.03421484
000220 34 d3 1c 3c 47 3c 9f 3d 45 80 e4 bd 26 e0 d9 bd
       0.009571839 0.07775169 -0.11157278 -0.10638456
000230 ab c1 69 3d f0 38 99 3c 55 ca a9 bd 05 04 a5 3d
       0.05706946 0.018703908 -0.08290545 0.08057407
000240 d2 9e 51 3d 5f 08 f0 3c 83 96 e8 3b 2b 76 e5 ba
       0.051176853 0.029300867 0.0070980205 -0.001750653
000250 30 e2 96 bd e1 dd 55 bd 1e c3 96 3c 9e 11 78 3d
       -0.073673606 -0.052213553 0.018403586 0.060563676
000260 b8 6e dd bd ec 1a 8a bd 7d 0e ae bd 78 c2 3f bd
       -0.108121336 -0.06743416 -0.08498857 -0.04681632
000270 28 1a d2 3c da 02 36 3d c4 46 81 3c 75 a3 fd 3c
       0.025647238 0.044436313 0.015780814 0.030961731
000280 ba 83 bb 3d 3b a0 6d bd 78 b9 64 3c 1f f0 a5 bd
       0.09155984 -0.058014136 0.013960235 -0.0810244
000290 52 ca 2d bd 3c d5 b7 bd 6a 81 d6 bd 48 fa a5 bd
       -0.042429276 -0.08976218 -0.104739025 -0.08104378
0002a0 53 14 a1 bd 10 1a 14 bd 3b 2d 9f 3d 84 6f dd bd
       -0.07865205 -0.036157668 0.07772299 -0.108122855
0002b0 fb d8 33 bd 96 da 7c bd e5 25 28 3d ae 02 1b 3c
       -0.0439081 -0.061731897 0.041051764 0.009461088
0002c0 88 78 de 3c 96 c1 e0 3c ac 07 93 bd f7 44 b5 bd
       0.027157083 0.027436059 -0.07179198 -0.088510446
0002d0 2e 1d 13 3d 76 07 7a 3d ce de 12 3d 6a b5 0b bd
       0.0359165 0.06104227 0.035857014 -0.034108557
0002e0 82 1d 34 3d 8e db 28 3d 11 4d 6d bd 50 81 76 bc
       0.043973453 0.04122501 -0.057934824 -0.015045479
0002f0 f5 3f 95 3d 7e 8d 43 bd 56 ec 1a 3d bb 91 9e 3d
       0.072875895 -0.04774236 0.037823044 0.0774264
000300 00 f4 4a 39 45 29 b7 3d 55 74 99 3d 12 26 74 3d
       0.00019355118 0.089434184 0.07492892 0.05960662
000310 60 68 28 bd 19 71 a6 bd fc f4 52 bd be 24 52 3d
       -0.041115165 -0.081270404 -0.051503167 0.05130457
000320 c0 7d bc ba 92 2f 0d 3d 6c 55 a4 bc 55 51 c9 bd
       -0.0014380738 0.034469195 -0.020060264 -0.09829966
000330 89 57 42 bd 54 a5 b4 bd d1 e4 d1 3d 6c 13 0f bd
       -0.04744676 -0.08820596 0.102487214 -0.03493063
000340 2f b7 cc bd d9 04 87 3d f2 41 44 3d 22 1e 7e 3d
       -0.09995877 0.065927215 0.047914453 0.062040456
000350 54 88 d5 3c 7a 80 21 bd 09 74 b2 3d 10 ab b8 bd
       0.026065983 -0.039429165 0.08713538 -0.090170026
000360 6c 86 84 bd 1e b7 1c bd 6c f9 d8 3c 80 e9 2d bc
       -0.064709514 -0.03826057 0.026486121 -0.010614753
000370 ff 95 a5 3d d8 8e 41 bc a5 ab 9a bd aa c2 be bd
       0.0808525 -0.011813842 -0.0755227 -0.09314473
000380 2e bd 5c bd c1 fb bb 3d 1c 8a 15 bd 32 47 56 3d
       -0.053891353 0.091788776 -0.036508664 0.05231399
000390 06 ee 48 3d 0f 90 64 bd fe e3 7e 3d b4 47 f8 bc
       0.04905512 -0.055801447 0.06222915 -0.030307628
0003a0 9e 60 89 bd 02 2b 6e bd 90 5a 77 bc f0 c4 d3 3b
       -0.067078814 -0.058146484 -0.015097275 0.0064626858
0003b0 d0 9b 7e bd ac 08 08 bd 38 a2 69 bc 00 c6 2a bc
       -0.062160313 -0.033211395 -0.014259867 -0.010423183
0003c0 75 e3 b7 bd d6 65 86 bd 9f b9 cc bd b0 64 1a 3c
       -0.08978931 -0.065623924 -0.09996342 0.00942342
0003d0 30 c4 df bc 5d 23 57 bd 62 b3 6b 3d bc f8 77 bd
       -0.02731523 -0.05252396 0.05754412 -0.060539946
0003e0 8a 2a 6f 3d 5a d8 69 3d 35 8e b8 bd 5d 65 c6 bd
       0.058390178 0.057091095 -0.09011499 -0.09687302
0003f0 20 2d 01 bd d6 43 46 bd 3e 41 7c 3d ef bd 88 bd
       -0.031537175 -0.048404537 0.061585657 -0.06676852

conv_block_1.2.bias f4 [10]
000000 d2 5c 6e 3c 7a 9a c6 bc 13 ee 9f bd 01 09 82 3d
       0.014548497 -0.024243582 -0.07809081 0.063493736
000010 ab e4 6e bc 2d c1 b4 bd 93 e0 67 3d 15 e6 0f 3d
       -0.014580886 -0.08825908 0.056610655 0.035131533
000020 52 70 96 3d be b2 93 3c
       0.07345642 0.018029567

conv_block_2.0.weight f4 [10, 10, 3, 3]
000000 d8 42 66 bd e8 9e ca bd f1 08 b0 3c 42 b5 19 3d
       -0.05621609 -0.0989359 0.021488639 0.037526377
000010 13 5b cd 3d 23 3d 91 3d 30 30 52 3d d5 2d af 3c
       0.10027137 0.07091739 0.051315486 0.02138416
000020 54 e4 64 3c 34 ae 85 3d 99 c2 39 3c 14 12 ae bd
       0.013970453 0.06527367 0.0113379 -0.08499542
000030 13 34 2c bd 5a 59 61 bd f1 05 ad 3d b7 8b 8b 3d
       -0.04204185 -0.055016853 0.08448399 0.06813758
000040 67 2b c4 bd 1a f2 7a ba 80 ad 26 3c 32 0e d3 bd
       -0.09578591 -0.0009572819 0.010173202 -0.10305442
000050 a8 e3 6e bd e8 bd 19 bc 29 f9 90 3d 90 29 61 3c
       -0.05832258 -0.009383656 0.070787735 0.013742819
000060 4d d1 a0 3d ab 76 ae 3d 17 e4 a3 3d 49 d2 d9 bd
       0.07852421 0.08518728 0.08002489 -0.10635812
000070 78 c2 b3 3d d6 cd e3 bc b4 9d 6b bd 3a 7f 9d 3d
       0.08777326 -0.027808111 -0.057523444 0.07690282
000080 fb f4 d1 bd d5 c1 4b bc 42 dc 8d bd d1 be 1a 3d
       -0.102518044 -0.01243635 -0.069267765 0.037779633
000090 8a 6f e8 bc ce 8a 08 3b 4b 56 c2 bd 2e 1d c2 bd
       -0.028373498 0.0020834687 -0.09489115 -0.09478222
0000a0 56 d8 68 3d 35 9e bd 3c a9 4c 0c bd 47 1a 96 3d
       0.05684694 0.023146728 -0.034252796 0.07329231
0000b0 0f c1 a8 bc ea c7 b4 3d 35 92 9f bd a1 c7 e1 bc
       -0.02059987 0.08827193 -0.07791559 -0.02756101
0000c0 ed b7 e2 3b a7 b6 ad 3d 69 b5 ca bd 5a c2 14 bb
       0.0069188983 0.08482104 -0.098978825 -0.002269885
0000d0 18 43 53 bd 91 c3 89 bd 1f 26 ad bd 84 a8 39 bd
       -0.051577657 -0.067267545 -0.08454537 -0.045326725
0000e0 9c fc 3c bc 41 c6 c9 3d d5 0c 1c 3d 03 07 5e 3d
       -0.011534836 0.09852267 0.038098175 0.054205906
0000f0 98 4c 79 3d 1f 65 a6 3c 57 3b 90 3d 17 4b 76 3a
       0.06086406 0.02031189 0.07042568 0.00093953445
000100 30 19 76 3d 6b 08 26 bd 33 01 ca 3d 46 b8 b4 3b
       0.060082614 -0.04053537 0.0986351 0.005515131
000110 25 81 6e 3d 76 3d 92 3c fb 57 3b 3d 03 74 be bd
       0.05822863 0.017851572 0.0457382 -0.09299471
000120 6c 85 ea 3c ab 74 3c bd 00 8f 9e 3c 45 dc 87 bd
       0.028628074 -0.0460097 0.019355297 -0.0663381
000130 2e d1 44 3d 49 d1 8e 3c 01 95 74 bd b2 25 a6 bd
       0.04805105 0.01743378 -0.059712414 -0.081126586
000140 9f 0c 9d bd 24 d1 00 3d 9b 12 b2 bc b5 f4 28 3d
       -0.07668423 0.031449452 -0.021737387 0.041248996
000150 a1 ec b4 bd 9b 1f ce 3c 2e f0 cb bd 2e d6 69 3d
       -0.08834196 0.025161555 -0.0995792 0.057089023
000160 94 f2 be bd 7c 48 92 bd 90 14 82 bd 9f 4d d1 bd
       -0.09323612 -0.071427315 -0.06351578 -0.10219883
000170 66 bb 51 bd a5 75 67 bd 5a 7e 33 bd 71 4f 4e 3d
       -0.051204108 -0.05650868 -0.04382167 0.05036873
000180 96 5e 25 3d fc d9 db 3d 3f a7 65 3c 43 6c 76 3d
       0.040373407 0.107349366 0.014016925 0.06016184
000190 23 9c 1e 3d aa 6c 15 3d 28 d5 44 bd a8 84 85 3d
       0.038723122 0.036480583 -0.048054844 0.06519443
0001a0 1a a8 49 bd 0c 30 e4 3c f5 c7 0b bd a9 fe 94 bc
       -0.04923258 0.027854942 -0.03412624 -0.018187838
0001b0 74 e3 bb bc 7e d1 ba bd 7b fb 31 bd 93 aa 79 bd
       -0.022935607 -0.09121989 -0.04345272 -0.060953688
0001c0 d4 b2 a4 3c eb 12 a1 3d 2e a1 12 3d e2 a8 66 bd
       0.020104803 0.078649364 0.035798244 -0.056313403
0001d0 51 bf c8 3d 9c 60 69 bd 60 50 9d 3d e2 ac a0 3d
       0.09802116 -0.0569769 0.07681346 0.07845475
0001e0 e9 55 6d 3d 94 3c f8 3c b6 f0 c6 bd 51 a2 e6 bd
       0.05794326 0.030302323 -0.09713881 -0.11261428
0001f0 33 d7 c4 bd d6 09 95 bd a3 4a 15 bd 70 c5 8a bd
       -0.096113585 -0.07277267 -0.036448132 -0.067759395
000200 54 43 85 bd 91 e8 6e 3d 69 f9 52 bd 60 7b b1 3d
       -0.065069824 0.05832726 -0.051507387 0.0866611
000210 c6 65 b2 bc 25 9a 9d 3d c7 6a be 3d 50 e7 b9 3d
       -0.021777045 0.07695416 0.0929771 0.090773225
000220 01 1c d2 3d d3 f4 14 3d 95 cc 56 3d 19 b0 66 3d
       0.102592476 0.036366295 0.0524412 0.056320284
000230 f9 9b d8 bd 28 d5 b7 3d 91 40 b3 3d a4 8a 7a 3d
       -0.105766244 0.08976203 0.087525494 0.061167374
000240 85 1e 96 bc 5e 12 9b 3d e2 43 68 bd 37 66 c9 bd
       -0.0183251 0.07571863 -0.056705363 -0.09833949
000250 36 58 bf 3d 0a 06 1b 3d 7c 6a a9 3c 9b 66 3c bd
       0.09342997 0.037847556 0.020680659 -0.04599629
000260 53 e8 53 3d c0 68 fe 3b 32 f6 97 3c 9f 14 ac bd
       0.051735234 0.007763952 0.018550012 -0.08402371
000270 18 0b f8 bc e9 82 3c 3d 2e f1 0d bd 93 4d 5b bd
       -0.030278727 0.046023283 -0.034653835 -0.053540777
000280 48 f1 80 bd 1a a7 e0 bd ce ed 0a bd 79 6c bc bd
       -0.06296021 -0.10969372 -0.033918194 -0.09200377
000290 59 45 82 bd 4d 38 8f 3d 8c 59 a9 bd 92 a9 3d bd
       -0.06360883 0.069931604 -0.08269033 -0.046304293
0002a0 f8 a1 b3 3d b7 f9 a8 bd 2b 5a 95 bd bd 6d 79 bd
       0.087711275 -0.08250754 -0.07292589 -0.06089567
0002b0 05 a3 31 bd 30 ec 66 3d 7c 5a 9a 3c 70 93 a4 bd
       -0.04336836 0.05637759 0.018841974 -0.08035934
0002c0 a8 ab 03 3d 30 b1 d0 bd 64 60 c8 3c 8c 2e 94 bd
       0.032146126 -0.10190046 0.024460025 -0.072354406
0002d0 78 5b d1 3d b7 dc 5a bc 89 a4 90 3d 25 d8 0c 3d
       0.102225244 -0.013358287 0.070626326 0.03438582
0002e0 25 b1 75 bd 34 c2 d1 3c 11 dc 27 3d 3c 79 bb 3d
       -0.05998339 0.025605299 0.040981356 0.09153983
0002f0 25 6d 1c bd 9e 82 17 bd ae be a3 bd c9 e4 81 ba
       -0.038190026 -0.0369898 -0.07995354 -0.0009910102
000300 aa f5 b7 bc f0 e4 d0 bd 74 e4 99 3c d1 28 ab 3d
       -0.022456009 -0.10199916 0.018785693 0.083573945
000310 c7 24 bc 3d 1d 9c 20 bd 8f cb c3 bd c0 ea 57 3b
       0.09186702 -0.03921138 -0.0956031 0.0032946318
000320 d8 6b a0 3c 79 12 95 bd 0f 74 9d 3d 46 2d c4 bd
       0.019582674 -0.07278914 0.07688152 -0.09578948
000330 5a 91 22 bd 73 24 9c bd b0 b6 17 3c 9a fa c0 3d
       -0.0396894 -0.0762414 0.009259865 0.094227985
000340 49 13 a7 3c 62 8a d5 bd 28 1e 4e 3d 93 84 4e bd
       0.020394938 -0.10426785 0.050321728 -0.0504194
000350 03 46 2f 3d c6 50 8b bd e5 c6 76 bd 26 7a 1e bc
       0.042791378 -0.06802516 -0.060248274 -0.009672677
000360 2b 75 9a bb cc 4d 6f bc 76 0b 7d 3c d8 81 30 bc
       -0.0047136745 -0.014605951 0.015444627 -0.010773145
000370 21 be 94 bc 58 25 43 3d de ab af 3d ca 0f 7e bd
       -0.018157067 0.047643036 0.08577703 -0.062026776
000380 52 0f bb 3d ef 2c 6f 3d 19 86 a1 bd b8 1e 23 3d
       0.091337815 0.05839246 -0.07886905 0.039824218
000390 1f 8d 02 3d ed 05 83 3d c2 09 d2 3d bc b7 e0 3d
       0.031872865 0.06397615 0.102557674 0.109725446
0003a0 7c 18 7f bd 58 92 b5 bd 9c 66 fa 3c b1 a8 88 bd
       -0.06227921 -0.088658035 0.030566506 -0.066728
0003b0 a3 3c 8b 3d 5c 20 06 3d 99 18 36 3d 06 76 d7 bc
       0.06798675 0.032745704 0.044457052 -0.026301395
0003c0 e3 aa 01 bd 56 77 e8 bd 66 64 9a 3d 07 49 29 bd
       -0.03165711 -0.113508865 0.07538681 -0.04132941
0003d0 c5 2b 36 bd d0 e9 b2 3d 85 88 16 bc 09 54 86 bb
       -0.044475336 0.087360024 -0.009187822 -0.0040993732
0003e0 e7 21 ae bd d1 ce 2b 3c 3c 76 ae bd 4c 26 c9 3c
       -0.0850256 0.010486321 -0.08518645 0.024554394
0003f0 ff 38 67 bd a3 bb a2 3d 3e bd ad 3a 54 bb 1c 3c
       -0.05645084 0.07945945 0.0013255251 0.009566147

conv_block_2.0.bias f4 [10]
000000 de 0e 5d 3c 20 d9 1a 3d 18 93 b3 3d 1c ac 24 bd
       0.013492314 0.037804723 0.0876829 -0.0402032
000010 b2 3c 89 3d 4e 68 2a bb f6 e2 92 bd a9 b4 b6 bc
       0.0670103 -0.0026002112 -0.071721956 -0.022302942
000020 96 04 ab bb 2e e5 86 3d
       -0.0052190525 0.06586681

conv_block_2.2.weight f4 [10, 10, 3, 3]
000000 90 30 11 bb d8 a2 58 bc eb 7d 9b 39 ae 9d 86 bd
       -0.002215419 -0.013222419 0.0002965772 -0.06573044
000010 88 35 ce bd 49 ce 45 3d 98 39 95 3d 69 a6 bb 3d
       -0.10068804 0.048292432 0.07286376 0.091625996
000020 68 f0 bf bd bb 19 38 bd 9f 46 bd bc c7 a1 4b bd
       -0.09372026 -0.044946413 -0.023104964 -0.04971483
000030 ec 5f cb bd b6 03 9a 3d 63 e4 89 bd 66 63 83 bd
       -0.09930405 0.07520239 -0.067330144 -0.06415443
000040 3f 48 2d bb 33 dc 9c 3d 71 97 2e 3d 34 68 b9 3d
       -0.0026440767 0.07659187 0.042624895 0.09053078
000050 e2 b0 c6 3d f3 b9 91 3c 48 d8 c9 bd 44 95 cf bc
       0.097017065 0.017788863 -0.098557055 -0.02533973
000060 df 40 16 bd 82 60 76 bd 4c ee 9d bd 1d 02 9d bd
       -0.03668296 -0.06015063 -0.07711467 -0.07666419
000070 98 31 87 bd 09 98 1e bd 94 37 2d 3c 24 3c c2 3c
       -0.06601256 -0.03871921 0.010572333 0.023710318
000080 9d 1c ac 3d 98 bb 15 3d 23 75 89 3d 8a 68 f5 bc
       0.08403895 0.036555856 0.06711795 -0.029957075
000090 1e 93 e1 3d 4a d8 1a 3d 30 cd 22 bd ae e2 f0 bc
       0.110143885 0.037803926 -0.039746463 -0.029404964
0000a0 be 0b c6 3d 87 2e 94 3d 64 1d 68 3c 33 27 a3 3c
       0.096702084 0.07235437 0.0141671635 0.019916153
0000b0 0f e1 7d 3d 38 59 76 bd f4 21 92 3d 20 a6 dc bd
       0.06198221 -0.06014368 0.07135382 -0.10773873
0000c0 ce 8c d1 3d 63 4a 92 3d bb 9a cf bd 55 ce 5f 3d
       0.102319345 0.071430944 -0.10136934 0.054640133
0000d0 ac 7e b6 bb 17 16 8e 3c 56 3f f3 bb 03 30 34 bd
       -0.0055692997 0.017344518 -0.0074233217 -0.0439911
0000e0 c4 d6 b4 3c 0a 35 60 bd 3c 6e df bd 5e 6f a9 3c
       0.022075064 -0.054738082 -0.109096974 0.020682987
0000f0 66 8d 32 3b 9b e5 c8 bd 8f eb 84 3d f2 1c 86 bd
       0.0027244925 -0.09809419 0.06490242 -0.0654849
000100 d8 70 a5 bd 69 f9 53 3d f9 c7 be bd 00 6c 8c bb
       -0.08078164 0.051751528 -0.093154855 -0.0042853355
000110 d7 ad 89 3d 58 c6 e9 3c a9 76 d3 bb ab 78 be bd
       0.067226104 0.02853696 -0.0064533544 -0.09300359
000120 48 ac 3c 3d 78 18 60 bc 8c fc c7 3d 24 0a 52 3d
       0.046062738 -0.013677709 0.09764966 0.051279202
000130 a8 79 80 bc 8f bf 8d 3d d6 18 e5 3c 05 3e 44 3d
       -0.01568301 0.069213025 0.027965944 0.04791071
000140 3b 28 94 3d 0a b4 1b bd 61 33 ab 3c 69 52 c8 3d
       0.07234236 -0.038013496 0.020898523 0.097813435
000150 62 b2 ae 3d 8f 6b 12 3c b4 b7 c6 bd c1 d9 cc bd
       0.085301176 0.008936777 -0.09703007 -0.10002471
000160 4d 8b 31 3d f1 e6 8c 3d 07 dc 81 3d ee ae 94 bd
       0.04334574 0.06879986 0.06340795 -0.07259928
000170 f1 06 71 bd de 99 7c 3d 00 2a 67 b9 44 e2 8f 3c
       -0.05884451 0.061670177 -0.00022045523 0.017563947
000180 1a 64 80 bd 20 fe bd 3b e3 ec c8 3d 52 de a8 bd
       -0.06269093 0.0057981163 0.098108076 -0.08245529
000190 58 84 08 bd 64 4c ce bd 80 43 98 bb f2 ab 02 3d
       -0.033329338 -0.10073164 -0.0046467185 0.03190226
0001a0 a8 e0 28 bc 9a 0e 82 bd aa 33 12 bd 7a f7 88 bd
       -0.0103074685 -0.06350441 -0.035693802 -0.066878274
0001b0 e7 8d 82 3d e1 f9 b3 bd 98 05 02 3c 18 17 78 bc
       0.06374722 -0.08787895 0.007935904 -0.015142225
0001c0 34 ce 9d bc df 7d a2 3d 98 0a 51 bc 48 fa d8 bc
       -0.019263364 0.07934164 -0.012758873 -0.02648653
0001d0 ac d4 25 bd c0 e4 af ba 98 1e 1a 3c 27 28 a0 3d
       -0.040486023 -0.0013419613 0.009406708 0.078201585
0001e0 81 0f 9a 3d 2d 36 b1 bd 1e 2a 6e 3d cb 2a a6 3d
       0.075224884 -0.08652911 0.058145635 0.08113631
0001f0 34 5e 5b bd 3a c9 2a bd a0 66 a0 bb 02 b9 ad bd
       -0.053556636 -0.04169581 -0.0048950464 -0.08482553
000200 42 94 35 bd c6 07 36 3d e0 03 cf bd c8 43 94 bd
       -0.044330843 0.044441007 -0.10108161 -0.07239491
000210 d1 11 9a 3d 80 07 e1 bb f1 71 b0 bd 03 7b 88 3d
       0.075229295 -0.006867349 -0.086154826 0.066640876
000220 e2 ff 84 bd e0 91 b3 bc 20 87 a6 bd e8 65 bd bc
       -0.06494118 -0.021920145 -0.08131242 -0.023119882
000230 70 57 39 3c 5c 6f e7 bc e7 e9 b3 3d 6b a5 93 3d
       0.011312351 -0.028251342 0.08784848 0.07209285
000240 7f 4e 9d 3d 26 f3 00 bd a0 a5 e4 3b e1 a5 d7 bd
       0.076809876 -0.031481884 0.006977752 -0.10529686
000250 36 cd 02 3d 1f 3c c3 bd 0d 23 a9 3d 9a e0 3f 3d
       0.031933986 -0.095329516 0.082586385 0.046845056
000260 24 3e fc 3c 73 20 79 bd b2 c5 12 3d ac e6 a1 bd
       0.03079135 -0.06082196 0.03583307 -0.07905325
000270 25 fe 85 3d f9 a9 8e 3d 1d 0b a0 3d 0c 78 ae 3c
       0.06542615 0.069660135 0.0781462 0.021297477
000280 7c 0d e5 bc b2 d1 04 bd 6c f6 a2 bd 9e 2f 70 bd
       -0.027960531 -0.032426544 -0.079571575 -0.05863916
000290 39 94 d6 3d cc 9a f2 bc 20 c8 fd bb 41 af cd 3d
       0.1047749 -0.029614829 -0.007744804 0.10043193
0002a0 eb df bb 3d 80 81 96 3a 34 a7 b5 3c c5 71 c9 3d
       0.09173568 0.0011482686 0.022174455 0.09836153
0002b0 ec 23 c5 bd 00 73 4a 3a 40 61 15 bb 0f dc 8b bd
       -0.09625992 0.0007722825 -0.0022793561 -0.06829082
0002c0 58 ab 4c bc 42 3c c7 bd 80 ec 29 ba 9d 07 54 bd
       -0.012492023 -0.0972829 -0.00064820796 -0.051765073
0002d0 0a e7 3c 3d 2f c9 db bc 26 b9 76 bd 7d 15 c3 3d
       0.046118774 -0.02682933 -0.060235165 0.09525583
0002e0 59 b2 9e bd 90 7a b1 bc 90 f7 c2 3d e2 cf 8a bd
       -0.07748861 -0.021664888 0.09519875 -0.06777932
0002f0 0d e0 cc 3d b7 ba 91 3c ea a8 bf 3d fd d3 c7 3d
       0.10003672 0.017789228 0.0935839 0.097572304
000300 e0 4a 69 3d 40 29 30 3d 9a 0e c5 bd 00 d4 31 bd
       0.056956172 0.04300809 -0.09621926 -0.04341507
000310 5b a1 f6 3c 07 33 24 bc 74 9f 6b 3d 9b 60 e9 bd
       0.030106237 -0.0100219315 0.057525113 -0.11395379
000320 2f ae 15 bd f8 eb c1 3d a5 68 da bc 55 d3 ca bd
       -0.036543068 0.094688356 -0.026661227 -0.0990359
000330 a8 3d 8d bd 4d f0 4f 3c b5 a1 cb bd 30 7e 17 bd
       -0.068965256 0.0126915695 -0.099429525 -0.036985576
000340 03 28 5c 3b cb 11 24 3c df ff 13 3d dd ac 15 bd
       0.0033593185 0.010014008 0.03613269 -0.03654181
000350 dc 73 38 3d f5 45 6c bd b2 a2 b2 bd 6b 3c ff 3c
       0.045032367 -0.057683904 -0.08722438 0.03115674
000360 ae 38 b5 bd 7b e2 a1 3d d4 bb b1 bd 15 ff e9 bb
       -0.088487014 0.07904526 -0.086784035 -0.007141004
000370 6d 17 78 bd 72 30 8a 3c 2d 63 07 bd d2 d6 37 3d
       -0.060569216 0.016868804 -0.033053566 0.044882603
000380 fb 79 e2 bc ff 81 0a 3d f7 91 c7 bd 18 18 ca bd
       -0.027646055 0.03381538 -0.097446375 -0.09867877
000390 a7 95 6a 3d dd 09 bc bd 5f 06 79 3d 58 3b 73 3d
       0.057271626 -0.09181569 0.06079709 0.059382766
0003a0 52 b6 9f bc f9 b5 01 3d 85 2c cd 3d e7 7d 0b bc
       -0.019496117 0.031667683 0.10018257 -0.008513904
0003b0 48 47 8e bd 88 5a b6 bc a7 18 83 3d 40 b1 70 3b
       -0.069471896 -0.022259966 0.064011864 0.0036726743
0003c0 43 5f bc 3d 00 97 c7 bd 6f 98 b8 3d 60 38 c2 3b
       0.09197857 -0.09745598 0.090134494 0.0059271306
0003d0 43 6e ae 3d fe 05 ad bb 89 f5 9d 3c ed c3 b0 ba
       0.085171245 -0.0052802553 0.01928212 -0.0013486125
0003e0 4e fb a5 bd 3d a3 a0 3d 76 3e b0 bb 0b dc 6b bd
       -0.08104573 0.07843635 -0.0053785397 -0.057582896
0003f0 c3 12 9f 3d 0f b1 a1 3d 59 3d 31 bd e5 a7 be 3d
       0.077672504 0.07895099 -0.043271396 0.09309367

conv_block_2.2.bias f4 [10]
000000 ea 67 9e 3c 74 f4 d6 bd c1 6a e5 3c a8 e7 13 3d
       0.01933666 -0.104958445 0.028005006 0.036109596
000010 54 1d 73 3d 5a dc f5 bb 8a 1d ab 3d 84 8b 2b bd
       0.05935414 -0.0075030746 0.083552435 -0.0418811
000020 80 f1 0b bd cd a2 a9 bd
       -0.03416586 -0.08283005

classifier.1.weight f4 [3, 1690]
000000 dd a2 43 bc 3d 58 6a ba de 28 82 bc ff 9b e8 3b
       -0.011940685 -0.000893954 -0.015888628 0.0070986743
000010 e2 61 b6 bc f0 4d 50 3a 42 a7 3a 3c 65 ce d1 bc
       -0.022263471 0.0007946184 0.011392416 -0.025611112
000020 4f 8f 85 3c 7e 9b ae bc de 74 d5 ba 12 a5 ed 3b
       0.016303686 -0.021314379 -0.001628544 0.007252344
000030 d0 96 d7 bc 24 d8 0f 3b 04 42 06 bd 28 25 c8 3a
       -0.02631703 0.0021948898 -0.0327778 0.0015269862
000040 ef 99 09 bc 73 fd 68 3c e6 3a 1c 3c e8 55 3e bc
       -0.008398517 0.014220583 0.009535527 -0.011617161
000050 8d 8a 05 3b b6 23 43 bc 06 07 0c 3c ae cc a3 bb
       0.0020376772 -0.01191037 0.008546596 -0.004998765
000060 d0 09 7c bb 73 49 0e 3a 7e 11 8f bc 06 ba 71 3c
       -0.0038457997 0.0005427815 -0.017464396 0.014753824
000070 2e de 04 bc db 65 97 3c 29 83 df bc b5 02 f6 bb
       -0.008109612 0.018481186 -0.027284222 -0.007507647
000080 e7 ac 73 bc 62 a5 8b bc 34 29 89 bc ba 4f 3d 3c
       -0.014872766 -0.017046634 -0.01674328 0.011554653
000090 30 78 50 3c 5d 99 5d 3c 72 1e ae bb 15 57 2f bc
       0.012723967 0.013525334 -0.005313688 -0.010701914
0000a0 93 0b bf bc 4f 6f d6 bc 0c 39 a8 bb 7f f8 6e bc
       -0.023320949 -0.026176123 -0.0051337536 -0.014585613
0000b0 ac 5e 96 bb ee 0c d7 bb f9 07 de bc 1a bc 1b 3b
       -0.0045889225 -0.0065628206 -0.027103411 0.002376324
0000c0 66 84 bc bb 19 0f 93 bc a0 b2 72 bc a3 fd 14 bc
       -0.005753088 -0.017951535 -0.014813095 -0.009093675
0000d0 71 92 2c bc db 1d 2c 3b 09 41 57 bc 05 03 fc bc
       -0.010532961 0.0026262912 -0.013138064 -0.030763159
0000e0 45 e3 d2 ba ca c8 26 3c fd e0 4e 3c 04 27 f6 bc
       -0.001608946 0.010179708 0.012626884 -0.030047901
0000f0 8b 6b a5 bc e9 cd 8e bb 6d 9c 3d bc 0b 67 b8 bc
       -0.020192882 -0.0043580425 -0.011572939 -0.022510072
000100 d0 fe 98 3c fc 61 86 3b 1a 01 f5 bc 28 c1 6e bc
       0.018676192 0.004101036 -0.029907752 -0.014572419
000110 27 51 5d bb 54 91 cc 3b e2 5b f2 bc bf cc 97 3c
       -0.0033770294 0.0062429104 -0.029584829 0.018530248
000120 02 b3 b1 3c c9 b9 db bc bc f5 ba b8 6c 02 b0 bc
       0.021691803 -0.026821988 -8.914943e-05 -0.02148553
000130 76 0f 9c bc 25 3b a1 3c 94 bd 8c 3c 54 d7 d1 bc
       -0.019050341 0.019681523 0.017180242 -0.025615372
000140 24 c6 31 bc 74 96 39 bc 78 a0 2b 3c 81 0c c1 bc
       -0.010850463 -0.011327375 0.01047527 -0.023565533
000150 20 1a 90 38 2d d6 2a bc 16 16 62 bc c3 04 01 bc
       6.871321e-05 -0.01042704 -0.013799211 -0.00787467
000160 4c df 1c bc 86 4c 96 bc d8 a4 63 3c f3 7b aa bc
       -0.0095747225 -0.018347036 0.013894282 -0.020811057
000170 77 02 0b 3a f5 7f a8 bc ef 06 86 bc 31 b4 9e bc
       0.00053027965 -0.020568827 -0.016360728 -0.019373031
000180 5a 8e ec bc 8d 20 61 bc 79 d7 8d bc b2 16 40 3b
       -0.028876472 -0.013740671 -0.01731466 0.0029310402
000190 52 4e fd 3a 8b 8b aa 3b 61 13 06 bd 3b 6c 32 3b
       0.001932571 0.005204623 -0.032733325 0.0027225155
0001a0 13 a7 a4 bc f4 af b1 bc 56 cd aa 3c a6 54 5e bc
       -0.020099198 -0.021690346 0.020849865 -0.013569986
0001b0 f4 21 1e 3c 03 00 58 bc 60 77 c0 bc 4c b1 f0 bc
       0.00965165 -0.013183597 -0.023494422 -0.029381417
0001c0 c9 5b a0 bc f1 de 65 bc 08 d5 2c 3c 68 bb 11 3c
       -0.019575017 -0.014030204 0.0105488375 0.008894779
0001d0 16 22 46 3c 4d 53 bb bc 89 27 2c 3c a0 d0 6c bb
       0.012093088 -0.02286687 0.010507473 -0.0036135092
0001e0 3e 89 26 3c ba 91 10 3c 45 9d 85 3c 24 c4 41 bc
       0.010164557 0.008823806 0.016310344 -0.011826549
0001f0 50 25 75 bc ad 36 ad bb e2 d3 7e bc b2 b8 f0 ba
       -0.014962509 -0.005286059 -0.0155534465 -0.001836559
000200 21 d9 a3 bc 20 bf 9b bb 1f 28 79 bb a9 6d b4 bc
       -0.020000996 -0.0047530085 -0.0038018299 -0.022024946
000210 54 c0 bf bb d4 93 1d 3c 45 d9 56 3c d6 0f 76 3c
       -0.0058517847 0.0096177645 0.0131133245 0.015018424
000220 2d 47 42 bc 1e 2c 8f bb b5 1c 74 bc 72 75 11 bb
       -0.01185779 -0.004369273 -0.014899422 -0.0022195247
000230 72 44 e4 bc 60 eb 02 bc 3d 5a 02 3c d1 5c 0c 3a
       -0.027864669 -0.007990688 0.007956085 0.0005354407
000240 6f ec 71 bc 89 a9 d5 bc 05 a6 38 bb ba 36 09 3c
       -0.014765843 -0.026081817 -0.0028175127 0.008374864
000250 70 82 90 bc 50 47 00 3c ff d0 82 ba ee dc ef ba
       -0.017640322 0.007829502 -0.0009980499 -0.0018300095
000260 4f 85 59 3c 47 40 26 3c 30 d6 8d bc a5 c4 bb bc
       0.013276412 0.010147161 -0.017314047 -0.022920916
000270 73 54 46 3c ee b5 11 3c 27 d6 84 bc f5 d0 0d bd
       0.012105095 0.008893473 -0.016215397 -0.034623105
000280 bf e8 5f 3b 8a b2 b6 bc fb 40 44 3c 8d ec f0 bb
       0.0034165827 -0.022301931 0.011978383 -0.007352418
000290 7f 7e d7 bb b1 ae 11 bc de 3f 78 3c 2b ba 83 ba
       -0.006576359 -0.008891747 0.015151946 -0.0010049989
0002a0 1f 9a cf ba 91 a7 5e bc 28 96 3b bb 00 a0 ae b6
       -0.0015838778 -0.013589756 -0.0028623436 -5.2042305e-06
0002b0 5a 6a 65 3c f4 02 d2 bb e0 7c 0e ba f1 59 86 3c
       0.014002407 -0.0064090434 -0.0005435478 0.01640031
0002c0 60 3d 5b 3b 56 a9 1a 3c 13 ff 93 3c 44 3e dd bb
       0.003345333 0.009439787 0.018065965 -0.0067518074
0002d0 0a f9 6c 3c b0 22 2b 3b 88 d5 d5 3b f3 0c a9 bc
       0.014463672 0.0026113205 0.006525699 -0.020636057
0002e0 c0 61 21 3b 58 98 aa 3b f2 eb 7b 3c 5c bf eb bb
       0.0024624914 0.005206149 0.015376078 -0.0071944427
0002f0 b7 0e 82 bc 6c 4c ce 3b 54 f0 99 3b 5e 8b 4b 3c
       -0.015876157 0.0062957313 0.004697839 0.012423364
000300 a5 fe 9b 3c 9e 31 77 3c 4e ae 19 3c d5 31 9c bc
       0.019042322 0.015087513 0.009379936 -0.01906673
000310 fa 0c 8a bc e4 d8 8e 3b 6a 4b 7a 3c 05 21 8d 3c
       -0.01685189 0.0043593515 0.015276769 0.017227659
000320 24 0e ee 3b 1e 2b 9f bc 5e 1f 7b 3c b8 15 42 bb
       0.0072648693 -0.01942974 0.015327303 -0.0029614996
000330 0c 8a 60 bc a0 fb 4f ba 30 42 aa 3a 8c 2e ab bc
       -0.013704788 -0.00079339184 0.0012989696 -0.020896219
000340 18 a9 08 3b 4d 80 94 bc 30 92 9c bc 40 fe 86 39
       0.002085274 -0.018127585 -0.019112676 0.00025747903
000350 20 14 28 3a d2 b8 6f 3c 90 56 a8 ba c2 f2 41 3c
       0.000641169 0.014631467 -0.001284318 0.011837663
000360 60 da 72 3b d4 7b ae bc 9e 9a 3c 3c d8 a7 86 bb
       0.0037056431 -0.02129928 0.011511473 -0.004109364
000370 9e 85 89 bc a0 4d bc bc 24 c5 ae bb c0 1f c2 39
       -0.016787346 -0.022986233 -0.0053335596 0.0003702622
000380 d8 8c 64 3b 83 9c 89 3c 7c 5c ef 3b 9b 5d 15 bc
       0.0034873988 0.016798263 0.007304726 -0.009116556
000390 a8 ea 25 bb 30 04 9a bc f0 63 60 bb ec cd a0 bc
       -0.0025316868 -0.018800825 -0.0034239255 -0.019629441
0003a0 80 7e 9e 39 10 8a fb 3a 1c 19 96 bc 58 7e 28 bb
       0.00030230358 0.0019190926 -0.01832252 -0.0025710072
0003b0 50 42 d6 ba 64 30 bb bc 98 34 69 3b 86 bf 0a 3c
       -0.0016346667 -0.022850223 0.0035584327 0.008468514
0003c0 a7 30 9a 3c b9 f4 92 bc d6 a7 7a 3c 90 ee a5 3a
       0.018822027 -0.017938958 0.015298804 0.0012659598
0003d0 c0 54 d6 b9 f8 cc c8 3b b1 e2 9a 3c 98 be e3 bb
       -0.00040880404 0.00612795 0.018906923 -0.006950211
0003e0 f0 c5 6f bb 59 fd 97 3c 49 82 9f bc ee 45 87 bc
       -0.0036586486 0.018553423 -0.019471304 -0.016512837
0003f0 22 21 34 3c 02 80 1f 3c 08 13 c2 3b 70 49 82 bc
       0.010994228 0.009735109 0.005922679 -0.015904158

classifier.1.bias f4 [3]
000000 e5 c7 93 3c 15 31 82 bc aa d3 82 b9
       0.018039653 -0.015892545 -0.00024953234
