models/03_pytorch_computer_vision_model_2.pth (torch, 35762 bytes, 10 tensors)

conv_block_1.0.weight f4 [10, 1, 3, 3]
0	0x3e667f82	0.22509578
1	0x3e952753	0.29131564
2	0xbede3d57	-0.43406174
3	0x3ea791fa	0.3272856
4	0x3e3e4fed	0.18585177
5	0x3da0d0c9	0.078523226
6	0xbe7175e4	-0.23580128
7	0x3e1d441c	0.15358013
8	0x3e6292a0	0.22126245
9	0xbea72e97	-0.32652733
10	0x3eaa2763	0.33233175
11	0xbdd99a1f	-0.106250994
12	0x3e3cbb27	0.18430768
13	0x3ee907f2	0.45513874
14	0x3e8000ef	0.25000712
15	0xbe9fce2a	-0.31211978
16	0x3ea00828	0.31256223
17	0x3c32dfd5	0.0109176235
18	0xbedc936c	-0.43081224
19	0xbe1befb1	-0.15228154
20	0x3c43d59e	0.011952786
21	0xbf1fd975	-0.6244119
22	0xbf26662b	-0.64999646
23	0x3e1b11bd	0.15143485
24	0xbf43812f	-0.76368994
25	0xbf0dcd7a	-0.5539166
26	0xbd7d9bdf	-0.06191623
27	0xbf635ac8	-0.88810396
28	0xbf704dee	-0.9386891
29	0xbef843e4	-0.48489296
30	0x3d93b3f6	0.07212059
31	0xbf35ab8b	-0.7096488
32	0x3e9f21a0	0.3108034
33	0x3e01fa75	0.12693198
34	0xbdc1125b	-0.09427329
35	0x3ed7f91a	0.42182237
36	0xbbd97fa7	-0.006637532
37	0x3e64855d	0.22316499
38	0xbe0cb7f6	-0.1374205
39	0xbe9bd7c4	-0.30438054
40	0x3e125d57	0.14293419
41	0xbe59b8ed	-0.2126195
42	0xbe086c40	-0.13322544
43	0x3e92b622	0.2865458
44	0x3d85a1ab	0.06524976
45	0xbe11107c	-0.14166445
46	0x3e4c695b	0.19962065
47	0x3d85d22b	0.06534227
48	0x3e3a006a	0.1816422
49	0xbe4d82d2	-0.20069435
50	0xbea8f518	-0.32999492
51	0xbdf5e276	-0.120060846
52	0xbe80b2cd	-0.25136414
53	0x3e898fa2	0.26867396
54	0x3e48f8b6	0.19626126
55	0x3eb3e6f7	0.3513715
56	0xbd3cd9f3	-0.04610629
57	0x3de752c0	0.1129508
58	0x3eaa6707	0.3328173
59	0xbebda1d9	-0.37037542
60	0xbe83753f	-0.2567539
61	0xbf0c1db0	-0.547328
62	0xbe95dd26	-0.29270285
63	0xbdb1e807	-0.08686834
64	0x3e2f1f89	0.17101873
65	0xbd6d8845	-0.057991285
66	0x3ebdca2f	0.37068316
67	0xbe248fe7	-0.1607052
68	0xbe1a0568	-0.15041125
69	0xbe21a27f	-0.15784644
70	0x3ebeab04	0.3723985
71	0x3e48695f	0.19571446
72	0x3f33a255	0.70169574
73	0xbe8e7290	-0.2782178
74	0xbf15f8f9	-0.5858303
75	0xbe30ab21	-0.1725278
76	0xbeaebb93	-0.34127483
77	0xbd1ff2f7	-0.03905007
78	0x3eae3910	0.3402791
79	0x3f0ffa4c	0.562413
80	0xbd03e94d	-0.032204915
81	0xbe68ef88	-0.22747624
82	0x3e33bbee	0.17552158
83	0xbe0a1196	-0.13483271
84	0x3e4dde80	0.20104408
85	0xbda51f96	-0.08062665
86	0x3e41ea29	0.18936981
87	0xbe84acf9	-0.25913218
88	0xbe2c4380	-0.16822624
89	0x3dce0490	0.10059464

conv_block_1.0.bias f4 [10]
0	0x3c8bf507	0.017084612
1	0x3d765367	0.060138132
2	0x3e94e537	0.29081127
3	0x3e1cf695	0.15328439
4	0xbe83239e	-0.2561311
5	0xbe398321	-0.18116428
6	0x3d25ad14	0.040448263
7	0xbddb7cbe	-0.10717152
8	0xbd7a548a	-0.06111578
9	0xbea5f316	-0.32412022

conv_block_1.2.weight f4 [10, 10, 3, 3]
0	0x3e1d4f6b	0.15362327
1	0x3d9b7314	0.07590309
2	0xbaf553ce	-0.0018716992
3	0xbd5cea61	-0.05393446
4	0xbe0792a2	-0.1323953
5	0xbe5d92a0	-0.21637964
6	0xbe44c51e	-0.19215819
7	0xbe5e4af7	-0.21708284
8	0xbe509ac4	-0.20371538
9	0xbc96d933	-0.018414116
10	0x3d72e01f	0.05929577
11	0xbd9ddbb3	-0.0770792
12	0xbe1e5dfc	-0.1546554
13	0xbe865edb	-0.26244244
14	0xbe88da94	-0.26729262
15	0xbe22dbe2	-0.15904191
16	0xbe1a8b7c	-0.15092272
17	0xbe7f0bae	-0.24906799
18	0x3c9b6818	0.018970534
19	0x3c528f1a	0.012851501
20	0x3e0f6592	0.1400359
21	0x3e27cb3c	0.16386122
22	0x3e8356b4	0.25652087
23	0x3e37a92d	0.17935629
24	0x3d1805ed	0.037115026
25	0x3dca98d8	0.09892434
26	0x3e1c9285	0.15290268
27	0xbe2f3488	-0.17109883
28	0xbcf69129	-0.030098515
29	0xbe274d3e	-0.1633806
30	0x3cdb9129	0.026802616
31	0x3cb6c909	0.022312658
32	0xbd78081c	-0.06055461
33	0x3dfec055	0.12439028
34	0x3c09c37a	0.008408422
35	0x3d15a49d	0.03653394
36	0xbdeda942	-0.11604549
37	0xbe126848	-0.14297593
38	0xbac780a3	-0.0015220832
39	0xbd35d64e	-0.04439383
40	0x3c9b68b7	0.01897083
41	0xbdee0c25	-0.1162341
42	0x3d8bb3e3	0.0682142
43	0xbdbb02cb	-0.09131392
44	0xbd312ecb	-0.043257516
45	0x3cbb7909	0.022884862
46	0x3d5f1714	0.05446537
47	0x3dabd20f	0.08389675
48	0x3dc4cf8c	0.09609899
49	0xbdab50bd	-0.08365009
50	0x3ce4d9d9	0.02793591
51	0xbd394446	-0.045231126
52	0xbc4c285d	-0.012460795
53	0xbd9f8cc2	-0.07790519
54	0x3e5ade8e	0.2137396
55	0xbcb9516b	-0.02262183
56	0x3c225163	0.009907099
57	0x3d9b26d6	0.07575767
58	0x3cf19986	0.029492151
59	0xbda71aa4	-0.08159378
60	0xbc14ab93	-0.00907411
61	0xbcd14d48	-0.025549546
62	0xbd11d2dc	-0.03560148
63	0xbda447a4	-0.08021477
64	0x3d4c212d	0.049836326
65	0x3c1e6231	0.009666965
66	0xbca1f9c4	-0.019772418
67	0x3db704cf	0.08936464
68	0x3c9be450	0.019029766
69	0xbd26813e	-0.0406506
70	0xbd8d8805	-0.06910709
71	0xbbe54208	-0.006996397
72	0x3d719846	0.05898311
73	0xbc30cc65	-0.010790919
74	0xbd6b8775	-0.05750223
75	0xbd2b4c25	-0.041820664
76	0xbd48a77f	-0.04898786
77	0x3d49da29	0.04928032
78	0x3dd87a42	0.10570194
79	0xbdee7442	-0.11643268
80	0xbb6bb3b1	-0.0035965259
81	0x3d5f0056	0.05444368
82	0x3c9c56b0	0.019084305
83	0xbd19d039	-0.037552092
84	0x3d615a6f	0.055017885
85	0x3d62e4c6	0.055393957
86	0x3d217121	0.03941453
87	0xbc97bcd8	-0.018522665
88	0xbce4a8c4	-0.027912505
89	0x3c38aaca	0.011271188
90	0x3b45e589	0.0030196628
91	0xbe60c067	-0.21948396
92	0xbe75bd13	-0.23997907
93	0x3e9364f5	0.28787962
94	0xbbf76494	-0.0075498316
95	0xbbd90410	-0.0066227987
96	0x3da3bbf7	0.07994836
97	0x3d877886	0.06614785
98	0x3e49c979	0.19705762
99	0x3b0cd8ba	0.0021491484
100	0xbe8180b0	-0.25293493
101	0xbe1f1b61	-0.15537788
102	0x3e14f273	0.14545612
103	0x3d948c6f	0.07253348
104	0x3df0ca71	0.11757363
105	0xbdb6aa33	-0.08919182
106	0xbb822051	-0.0039711376
107	0x3ce94f30	0.028480142
108	0xbd213e94	-0.03936632
109	0x3d6ddfa1	0.058074597
110	0x3dfabdfb	0.12243267
111	0x3cab18ff	0.020885943
112	0xbddbee0f	-0.107387654
113	0xbd857279	-0.065159746
114	0xbcd96496	-0.02653722
115	0x3d9a81c2	0.075442806
116	0xbb88fad1	-0.0041802903
117	0x3e92caae	0.28670257
118	0x3eb053fd	0.34439078
119	0x3e47b112	0.1950114
120	0x3c1448bb	0.009050543
121	0x3df07923	0.11741855
122	0x3da9e6b7	0.082959585
123	0xbda0cb28	-0.07851249
124	0xbdb584a1	-0.088631876
125	0x3df4c52d	0.11951671
126	0x3d2617be	0.040549986
127	0xbd46b619	-0.048513506
128	0xbe3f41d9	-0.18677463
129	0xbdeabf02	-0.11462213
130	0xbdfd4ae5	-0.123678006
131	0x3caf00e5	0.021362731
132	0x3da8280f	0.082107656
133	0x3dda661c	0.10664007
134	0x3d67a532	0.056554027
135	0x3cd64cb2	0.026159618
136	0xb9aa84a0	-0.0003252374
137	0xbda38400	-0.079841614
138	0xbdb71110	-0.08938801
139	0xbdca42d3	-0.09876027
140	0x3d358beb	0.04432289
141	0xbd5434c8	-0.05180815
142	0xbcad381a	-0.021144915
143	0xbd768026	-0.060180806
144	0xbd06fb8c	-0.032954738
145	0xbdbd1b97	-0.09233778
146	0xbdf2b6fd	-0.118513085
147	0x3cd5f0ca	0.026115794
148	0xbd4a8dc7	-0.049451616
149	0x3d46fe09	0.04858211
150	0xbba1f118	-0.0049420707
151	0xbd86dd3c	-0.06585166
152	0xbd50590a	-0.050866164
153	0x3d6d6dcd	0.057966042
154	0x3d1c849d	0.038212407
155	0xbe049e69	-0.12951054
156	0x3d54daac	0.051966354
157	0xbddae42c	-0.106880516
158	0x3d8f1682	0.06986715
159	0x3d423d1a	0.047421552
160	0x3d9a0bf0	0.07521808
161	0xbdd966cb	-0.10615309
162	0x3e2a938a	0.16657844
163	0x3d6a0be7	0.057140257
164	0x3d8659dc	0.06560108
165	0x3e146cac	0.1449458
166	0xbc744330	-0.014908597
167	0xbbfdc10a	-0.0077439593
168	0x3d0292cf	0.03187829
169	0xbda4eaa2	-0.08052565
170	0x3d925578	0.07145208
171	0xbdd64d8b	-0.10464009
172	0x3d860630	0.06544149
173	0x3da16ee0	0.07882476
174	0x3dcc17df	0.099654905
175	0xbccc5376	-0.024942141
176	0xbdb1794c	-0.08665714
177	0x3cc1b5ac	0.023646198
178	0x3d6eaef0	0.058272302
179	0xbdd71616	-0.105022594
180	0xbcc726d1	-0.024310501
181	0xbd8197d3	-0.06327786
182	0xbc1d4048	-0.009597845
183	0xbd55f56f	-0.052236017
184	0xbd36703e	-0.044540636
185	0xbd05da53	-0.032678913
186	0xbdcbf547	-0.09958892
187	0x3dafb5c5	0.08579592
188	0x3db0dfa9	0.0863641
189	0xbc8f6ec9	-0.017508881
190	0xbc50797d	-0.012724278
191	0xbd2f586d	-0.04280894
192	0xbdc4a603	-0.09601977
193	0xbdd4aa23	-0.103840135
194	0x3d203715	0.03911503
195	0xbd75bfce	-0.059997372
196	0xbd8f61a6	-0.07001047
197	0xbc32c27f	-0.010910629
198	0xbd1bf349	-0.03807381
199	0xbd167533	-0.036732864
200	0xb9194709	-0.0001461768
201	0xbcbbd860	-0.022930324
202	0xbd162ddb	-0.036664825
203	0xbd501c29	-0.050808106
204	0xbdaf6977	-0.08565038
205	0x3db52acb	0.08846053
206	0xbd2c9226	-0.042131566
207	0x3ccd46e8	0.025058225
208	0xbd1c8cff	-0.0382204
209	0x3bb9add1	0.0056664725
210	0x3dc9a90e	0.09846698
211	0x3d407062	0.046982177
212	0xbdbad3b0	-0.091224074
213	0x3d158f9a	0.036513902
214	0x3dc42ed9	0.09579248
215	0x3cd73f8d	0.02627542
216	0x3d90b605	0.070659675
217	0x3dd4d4dc	0.10392162
218	0xbc847070	-0.016166896
219	0x3cb09455	0.021555105
220	0xbd967d39	-0.07348103
221	0xbcb51599	-0.022105025
222	0x3d9be639	0.07612271
223	0x3d57dde9	0.052701864
224	0xbd8d363c	-0.0689511
225	0xbdad1c04	-0.08452609
226	0xbd9385c0	-0.07203245
227	0xbdd509a3	-0.10402229
228	0xbda6947b	-0.08133789
229	0xbcd635c6	-0.026148688
230	0x3d91d7d7	0.07121246
231	0x3c90b4cd	0.017664338
232	0xbda3e517	-0.0800268
233	0xbdad2f1a	-0.084562495
234	0x3d51211a	0.05105696
235	0xbda40884	-0.08009437
236	0xbc71061f	-0.014710932
237	0x3d4e7688	0.05040601
238	0xbd483da9	-0.04888693
239	0xbc3c44ce	-0.011491014
240	0xbc11c103	-0.008896115
241	0xbccb67a9	-0.024829702
242	0xbd5b53b9	-0.05354664
243	0xbdc072b3	-0.09396877
244	0xbdae81b2	-0.08520831
245	0xbd67070e	-0.056403212
246	0x3dd11fc7	0.10211139
247	0xbd52c007	-0.051452663
248	0xbd92ca7f	-0.07167529
249	0x3cca02aa	0.024659473
250	0x3cf2f10c	0.029655956
251	0x3d653af2	0.055964418
252	0x3da47a6a	0.08031161
253	0x3d6ff91c	0.05858718
254	0xbdd6106d	-0.10452352
255	0x3c33c06a	0.010971168

conv_block_1.2.bias f4 [10]
0	0x3ee85578	0.45377707
1	0x3c157507	0.00912214
2	0xbd6d8adb	-0.05799375
3	0x3edeadb1	0.4349189
4	0xbe1a2fa1	-0.15057231
5	0x3c18cedc	0.009326663
6	0x3e2089a1	0.15677501
7	0x3e65d628	0.22444975
8	0x3def7bcb	0.116935335
9	0xbca1464b	-0.019686839

conv_block_2.0.weight f4 [10, 10, 3, 3]
0	0x3c02a0e3	0.007972929
1	0xbdce668b	-0.10078152
2	0xbd53699a	-0.05161438
3	0x3c1d428c	0.009598386
4	0x3ce54e3d	0.027991408
5	0x3d9ed54c	0.07755527
6	0xbd816c60	-0.06319499
7	0x3d9458e1	0.07243515
8	0x3dc8458a	0.097788885
9	0x3d7fbdba	0.062436797
10	0xbdadc71f	-0.08485245
11	0xbd019633	-0.03163738
12	0xbdd611ae	-0.10452591
13	0xbd81ae12	-0.063320294
14	0x3d9cf37e	0.0766363
15	0x3c99123d	0.018685455
16	0x3d132c76	0.035931073
17	0xbd8e16ae	-0.069379196
18	0x3c83af61	0.016074838
19	0xbd828b15	-0.06374184
20	0x3d57f713	0.052725863
21	0xbd3d1793	-0.04616506
22	0xbcd987a4	-0.026553936
23	0xbdbb5d79	-0.09148688
24	0x39befa18	0.00036425958
25	0x3dcd0cca	0.10012205
26	0x3d51ba71	0.051203195
27	0xbda4b9e0	-0.08043265
28	0x3c382f81	0.011241795
29	0xbd3a07d0	-0.045417607
30	0xbdbe3027	-0.09286528
31	0x3db29d45	0.08721403
32	0xbbb2a03a	-0.0054512294
33	0x3db46868	0.088089764
34	0xbdad0824	-0.08448818
35	0xbda714ac	-0.0815824
36	0x3c9d5797	0.019206805
37	0x3d8fbaf2	0.07018079
38	0xba8b7a66	-0.0010641336
39	0xbcf0fb88	-0.029416814
40	0x3e0b8353	0.13624315
41	0xbce9cc01	-0.02853966
42	0xbcd9baa0	-0.026578248
43	0xbd174453	-0.036930393
44	0x3de9016d	0.11377225
45	0xbc8558a7	-0.016277624
46	0xbc558aed	-0.013033611
47	0xbd31c990	-0.043405116
48	0xbccca8d2	-0.024982844
49	0xbdade598	-0.08491057
50	0xbda44701	-0.080213554
51	0x3d878e02	0.06618883
52	0x3db72f55	0.08944575
53	0x3dcb9b87	0.09941774
54	0xbd9154fa	-0.07096286
55	0x3de309f8	0.11085886
56	0xbde0f5df	-0.10984396
57	0x3d752037	0.059845176
58	0x3db36ab3	0.08760586
59	0x3d9582d0	0.07300341
60	0x3e34a323	0.17640357
61	0x3d3ebe00	0.046567917
62	0x3b0f2ef7	0.0021848062
63	0x3d070f43	0.03297354
64	0xbd397eeb	-0.045287054
65	0x3cf919ae	0.030407753
66	0xbcae4bac	-0.021276318
67	0xbbcc4128	-0.006233353
68	0xbdce401b	-0.10070821
69	0xbb590e22	-0.0033119996
70	0xbd9f63d6	-0.07782714
71	0xbd641dec	-0.0556926
72	0xbd6293f4	-0.05531688
73	0xbd2306ae	-0.039801292
74	0xbd255c79	-0.040371392
75	0x3dba0e44	0.09084752
76	0x3e008d94	0.12554008
77	0x3d0b9435	0.034076888
78	0x3c7ea6cb	0.015542696
79	0xbdc4f56d	-0.09617124
80	0x3d0b100d	0.033950854
81	0x3dee3653	0.11631455
82	0xbdd1bdd0	-0.10241282
83	0x3da9eb3a	0.08296819
84	0x3e0a438b	0.13502328
85	0xbcdda697	-0.027056975
86	0xbc7be58d	-0.015374553
87	0x3dd88de9	0.10573942
88	0x3cbefa16	0.02331261
89	0x3da90ce7	0.08254414
90	0xbd19819f	-0.037477132
91	0xbddba59a	-0.10724945
92	0xbe497ec2	-0.1967726
93	0x3e9bb5cf	0.30412146
94	0xbe0d4287	-0.1379491
95	0x3d9ed201	0.07754899
96	0x3e5250f3	0.20538692
97	0x3dba42a5	0.09094743
98	0x3dbf1744	0.093306094
99	0xbe3bfff4	-0.18359357
100	0xbdfab163	-0.12240865
101	0xbc2100f6	-0.009826889
102	0xbdea1f01	-0.11431695
103	0x3badc1fb	0.0053026653
104	0x3cceb9f8	0.025235161
105	0x3dd0f46f	0.10202872
106	0xbd5d2a63	-0.0539955
107	0x3e0c320a	0.13690963
108	0x3d82d6e6	0.06388645
109	0x3d1a93cc	0.037738606
110	0xbd59b41f	-0.053150292
111	0xbdb0b447	-0.08628135
112	0x3b78468b	0.0037883844
113	0xbd7d9102	-0.06190587
114	0x3db22940	0.08699274
115	0xbdcee0ed	-0.10101495
116	0x3d41b476	0.04729124
117	0x3e3aafc0	0.18231106
118	0x3ebc088c	0.3672527
119	0x3e9c5626	0.30534476
120	0xbeb0683b	-0.34454522
121	0x3ec07d8e	0.3759579
122	0x3e4f60f5	0.2025183
123	0xbf2ed944	-0.6830027
124	0xbe837416	-0.25674504
125	0xbd71028a	-0.058840312
126	0xbe34f83f	-0.17672823
127	0x3dc670e1	0.09689499
128	0x3e219c58	0.15782297
129	0xbe881a50	-0.26582575
130	0x3db6b100	0.08920479
131	0x3dcebfda	0.100951865
132	0x3d583a05	0.052789707
133	0xbba55e4f	-0.005046643
134	0xbe22213f	-0.15832995
135	0x3e48820c	0.19580859
136	0x3dcb6f02	0.099332824
137	0x3dcdc796	0.100478336
138	0x3b8444e8	0.0040365346
139	0x3dc8b944	0.098009616
140	0xbc81bc99	-0.015837
141	0xbddc29e0	-0.107501745
142	0xbddf606f	-0.10907065
143	0xbe1ea9ea	-0.15494505
144	0xbf056403	-0.5210573
145	0xbcdc6a7b	-0.026906243
146	0x3e630d2b	0.22172992
147	0xbeb19833	-0.3468643
148	0x3d12337b	0.035693627
149	0x3efa5764	0.488948
150	0xbe1eaf12	-0.15496472
151	0x3de019ee	0.10942446
152	0x3d32bfc4	0.043639913
153	0x3cad5de3	0.021162933
154	0x3e0d7546	0.13814268
155	0x3ea226ff	0.31670377
156	0xbea03e9a	-0.3129776
157	0x3e73103a	0.23736659
158	0x3e01c96f	0.12674497
159	0xbea2f833	-0.31829986
160	0xbdb9b5e7	-0.09067898
161	0xbdbbf2fe	-0.091772065
162	0xbebdf456	-0.37100476
163	0xbc26a2e3	-0.010170671
164	0x3e916a3f	0.28401372
165	0xbebc1700	-0.36736298
166	0x3db3c3c6	0.08777575
167	0x3eb3d9ec	0.351272
168	0xbddc2277	-0.10748761
169	0x3dbb8e14	0.091579586
170	0xbce27089	-0.027641552
171	0xbd6e9a8e	-0.058252864
172	0xbba7cf73	-0.0051211654
173	0xbdffcd94	-0.12490383
174	0x3d76facf	0.060297783
175	0x3dd8d138	0.1058678
176	0x3cf59d30	0.02998218
177	0xbe27737b	-0.16352646
178	0x3e974674	0.2954594
179	0x3ea90056	0.3300807
180	0xbd42775c	-0.04747711
181	0x3d1c2571	0.038121644
182	0x3d7251c6	0.059160016
183	0xbdafa6d1	-0.085767396
184	0xbdead539	-0.1146645
185	0xbdb7813a	-0.08960195
186	0xbcbc5d44	-0.022993691
187	0xbbf38715	-0.0074318745
188	0xbc38f16e	-0.01128803
189	0xbd6802c3	-0.05664326
190	0xbd924bfc	-0.07143399
191	0xbd72f149	-0.05931214
192	0xbd98bbb7	-0.07457679
193	0x3d8f6a11	0.070026524
194	0xbd2b6d7a	-0.04185245
195	0xbde70332	-0.11279906
196	0x3c757410	0.014981285
197	0x3a8c59ed	0.0010707952
198	0x3da5514f	0.08072149
199	0x3d873741	0.06602336
200	0x3dc6562a	0.09684403
201	0xbd9e38f6	-0.07725708
202	0x3d8ab24a	0.06772287
203	0x3db51858	0.08842534
204	0xbd5522a9	-0.052035008
205	0x3dc664ea	0.096872166
206	0x3da1a775	0.07893268
207	0xbdcf492e	-0.1012138
208	0x3d2cea04	0.042215362
209	0x3c127a54	0.008940298
210	0xbe420a88	-0.1894933
211	0xbc3294eb	-0.010899763
212	0x3d6ca42c	0.057773754
213	0xbe695489	-0.22786154
214	0xbd8233c3	-0.06357529
215	0xbd9779da	-0.07396288
216	0x3dbe66b7	0.09296935
217	0x3df8cdb3	0.12148609
218	0x3d41a150	0.04727298
219	0xbdd3b75b	-0.10337707
220	0x3d8ff548	0.070292056
221	0x3d419b67	0.047267344
222	0xbc7f4b12	-0.015581863
223	0x3cd83587	0.026392711
224	0x3dd51b76	0.104056284
225	0xbd6f0981	-0.058358673
226	0xbca8ee0a	-0.020621318
227	0x3db65808	0.089035094
228	0xbd161215	-0.036638338
229	0x3d8e62e8	0.069524586
230	0xbc91e508	-0.017809406
231	0xbd812180	-0.06305218
232	0xbc319529	-0.010838785
233	0xbcf197c1	-0.029491307
234	0x397e8d60	0.00024275994
235	0x3cceaa25	0.025227616
236	0xbdd3a9d7	-0.10335129
237	0xbd8c66cd	-0.06855545
238	0xbbc66ecf	-0.00605569
239	0x3d852dde	0.06502889
240	0xbddd55b8	-0.10807365
241	0xbdced668	-0.100994885
242	0x3d0a62d8	0.03378567
243	0xbd91ef4f	-0.071257226
244	0xbcc9c0d2	-0.024628077
245	0x3db41e64	0.08794859
246	0xbdadef5d	-0.084929205
247	0x3d9e87ad	0.07740722
248	0x3d07ac08	0.033123046
249	0xbe38c829	-0.18045105
250	0xbc2173f4	-0.009854306
251	0x3d9ed8ea	0.07756217
252	0xbdfbb967	-0.12291222
253	0xbd82aba4	-0.06380394
254	0x3dc2c3ac	0.09509978
255	0x3d16d58a	0.03682474

conv_block_2.0.bias f4 [10]
0	0xbd887fc5	-0.06664995
1	0xbe77f9ca	-0.2421638
2	0xbdc59dde	-0.096492514
3	0x3dcd64fc	0.10029027
4	0xbe3f050c	-0.18654269
5	0xbc35c411	-0.011094109
6	0xbc89d1a2	-0.016823594
7	0x3e97f831	0.29681543
8	0x3f15658b	0.5835807
9	0x3e0d1aad	0.13779707

conv_block_2.2.weight f4 [10, 10, 3, 3]
0	0xbdafc73d	-0.085829236
1	0xbd4a235d	-0.04935013
2	0x3c14458d	0.009049785
3	0xbd56783f	-0.05236077
4	0x3dcb1368	0.09915811
5	0x3d4498fe	0.047997467
6	0x3c809c8f	0.015699653
7	0xbbc3a1d1	-0.0059702178
8	0x3e02fab2	0.12790945
9	0x3d98a278	0.074528635
10	0x3cb13252	0.02163044
11	0xbe967c30	-0.29391623
12	0xbe3394fe	-0.17537305
13	0x3e9403b4	0.28909075
14	0xbec974c7	-0.39346907
15	0xbe418d4b	-0.18901555
16	0x3e9b74cc	0.30362546
17	0xbe75c9b4	-0.24002725
18	0x3de4ab6b	0.11165508
19	0x3db591c3	0.088656925
20	0x3da48e8c	0.08035001
21	0xbca1feaa	-0.019774754
22	0x3e18057d	0.14845844
23	0x3c5a408d	0.013321054
24	0x3d805d75	0.062678255
25	0x3e49f281	0.19721414
26	0xbd606a8c	-0.05478911
27	0xbe3ab782	-0.18234065
28	0x3ea1c442	0.31595045
29	0xbebc55f2	-0.3678432
30	0xbeca97d3	-0.39568958
31	0x3e145fe9	0.14489712
32	0xbe0dd063	-0.13849024
33	0xbea4c2ff	-0.3218002
34	0x3d91c23a	0.07117124
35	0x3dfa2776	0.12214558
36	0xbd37464c	-0.044744775
37	0x3dacebac	0.08443388
38	0x3c334459	0.010941588
39	0xbdb255be	-0.0870776
40	0xbd4e249f	-0.050327893
41	0xbdf45025	-0.11929349
42	0xbe33a7c4	-0.17544466
43	0xbdd60baf	-0.10451447
44	0xbe7cf121	-0.24701358
45	0xbd8fdc0c	-0.070243925
46	0xbd60edb0	-0.054914176
47	0x3dcafd26	0.099115655
48	0xbc5ef001	-0.013607026
49	0x3d0b7a6a	0.03405229
50	0x3d9312fd	0.07181356
51	0x3b134617	0.0022472197
52	0xbd72e43b	-0.05929969
53	0xbd90ba19	-0.07066745
54	0xbd0887ed	-0.033332754
55	0x3d20e361	0.039279345
56	0xbdb6ede9	-0.089320965
57	0xbb963ff4	-0.0045852605
58	0x3d23a672	0.039953656
59	0x3db2d7d8	0.08732575
60	0x3d38259a	0.044957735
61	0x3d05d379	0.03267238
62	0x3da42153	0.080141686
63	0xbea50f52	-0.3223825
64	0xbccaa29b	-0.02473574
65	0xbec60e95	-0.38683
66	0xbec2729b	-0.37978062
67	0xbd954372	-0.07288255
68	0xbe051104	-0.12994772
69	0x3ec0d122	0.37659556
70	0x3eb59066	0.3546173
71	0x3e3f6ec8	0.18694603
72	0x3d56a15d	0.05239998
73	0xbe8f707e	-0.28015512
74	0xbd95f402	-0.073219314
75	0x3ec66510	0.3874898
76	0xbe06ff1d	-0.13183255
77	0x3e0c9951	0.1373036
78	0xbe8d65be	-0.27616686
79	0xbec9df9b	-0.3942841
80	0xbe0269ea	-0.12735716
81	0xbe0d0a03	-0.1377335
82	0xbb5bda45	-0.0033546847
83	0xbde6cb3f	-0.11269235
84	0xbd307425	-0.043079514
85	0xbe21a0b4	-0.1578396
86	0xbd14d390	-0.036334574
87	0xbcd453e2	-0.025918905
88	0xbe06b468	-0.13154757
89	0xbd85456a	-0.0650738
90	0x3d76f88f	0.060295638
91	0x3c298192	0.010345833
92	0xbc9c357a	-0.019068468
93	0xbd0087be	-0.031379454
94	0x3d1784ae	0.036991768
95	0xbd663ff8	-0.05621335
96	0x3e14a1ed	0.14514895
97	0xbbb76ed7	-0.00559793
98	0xbc42e170	-0.011894569
99	0x3e0f1329	0.13972153
100	0x3deba824	0.1150668
101	0xbe5f80b6	-0.21826443
102	0x3e66a015	0.22522004
103	0x3d818c56	0.06325595
104	0xbba10455	-0.0049138465
105	0x3dd62278	0.10455793
106	0xbee44b1f	-0.44588563
107	0x3d450de6	0.048108958
108	0x3d034e80	0.032057285
109	0x3cef6617	0.029223485
110	0x3c313ca5	0.010817681
111	0x3da72dfc	0.08163068
112	0xbdac5dea	-0.0841635
113	0xbdab4d9b	-0.083644114
114	0xbc1f7924	-0.009733472
115	0xbddb12ed	-0.10696969
116	0xbdd6bade	-0.10484861
117	0xbe35523f	-0.17707156
118	0x3e64afbb	0.22332661
119	0x3db5179a	0.08842392
120	0xbe082063	-0.13293605
121	0xbebf66e7	-0.37383196
122	0x3e0231d9	0.12714328
123	0xbd2abaff	-0.04168224
124	0xbecc921b	-0.3995522
125	0x3e8db5d4	0.27677786
126	0xbcb5b0f2	-0.0221791
127	0xbd049bec	-0.03237526
128	0xbdc1abc1	-0.094565876
129	0x3daeec22	0.085411325
130	0xbe6893c8	-0.22712624
131	0x3d231e0e	0.039823584
132	0x3e729768	0.2369057
133	0xbe34528a	-0.17609611
134	0xbe3bec13	-0.18351774
135	0xbc72be20	-0.014815837
136	0x3d0e57cf	0.03475171
137	0x3d66144c	0.0561717
138	0xbd92e445	-0.07172445
139	0xbdcd9f00	-0.100400925
140	0xbaf8cdfc	-0.0018982287
141	0xbcc6e927	-0.024281098
142	0x3cef7dad	0.029234732
143	0xbce5c91c	-0.028049998
144	0x3daafaf9	0.083486505
145	0x3c42fd5c	0.011901226
146	0x3db836a3	0.08994796
147	0xbd9a04a8	-0.07520419
148	0x3d2e2c57	0.042522755
149	0x3c6ffc52	0.01464756
150	0xbd5bba37	-0.053644385
151	0x3d3ead12	0.04655177
152	0xbddb44e2	-0.10706498
153	0xbd72b013	-0.05924995
154	0xbdf5079a	-0.119643405
155	0x3e1a0d3f	0.15044115
156	0xbdea46b6	-0.11439268
157	0xbed6762d	-0.41887036
158	0x3f085dca	0.5326811
159	0x3e2f3d93	0.17113332
160	0xbf37b861	-0.71765715
161	0x3e8c2a57	0.27376053
162	0xbd103e66	-0.035215758
163	0xbd730a46	-0.05933597
164	0xbe5cf353	-0.21577196
165	0x3e2892c5	0.16462238
166	0x3d9a3394	0.07529369
167	0xbf10dd9d	-0.56588155
168	0xbd5e87b6	-0.054328643
169	0x3e3839c5	0.17990787
170	0xbba14b3c	-0.0049222987
171	0xbdd53a7f	-0.10411548
172	0x3c7cd6cd	0.015432072
173	0x3e618836	0.22024617
174	0xbe4d6e91	-0.20061709
175	0xbe23eac5	-0.16007526
176	0x3d3439e0	0.044000506
177	0xbd98b9aa	-0.074572876
178	0xbde88d38	-0.1135506
179	0xbdffd5fa	-0.12491985
180	0x3db2a51e	0.087229
181	0x3c0d5dd4	0.008628327
182	0xbda0ac07	-0.078453116
183	0xbd5463e1	-0.051853064
184	0xbc842eb5	-0.016135553
185	0xbba8231e	-0.0051311394
186	0xbc0a1c80	-0.0084296465
187	0x3dbaba79	0.09117598
188	0xbd8da5e3	-0.06916406
189	0xbef7537b	-0.48305878
190	0xbf019548	-0.5061841
191	0xbdcb9b69	-0.099417515
192	0xbe2d713b	-0.16937725
193	0xbe152923	-0.14566474
194	0xbd86acbb	-0.065759145
195	0xbeb39bf7	-0.3507993
196	0x3e94c3dc	0.2905568
197	0x3e91dc79	0.2848852
198	0xbe213a95	-0.15745004
199	0xbdfd0106	-0.12353711
200	0xbd25cad7	-0.040476646
201	0xbd9bcaa7	-0.07607012
202	0xbc3decd9	-0.011592113
203	0x3d200fa3	0.039077412
204	0xbd222d23	-0.039593827
205	0xbdae43fb	-0.0850906
206	0x3e1859df	0.14878033
207	0xbeb2c55b	-0.34916195
208	0x3ee50834	0.4473282
209	0xbdd4e23e	-0.10394715
210	0x3ea3656c	0.31913316
211	0x3ec73ab5	0.38911977
212	0xbe25688d	-0.16153164
213	0xbec0a08f	-0.37622496
214	0xbe819d6e	-0.25315422
215	0xbc687e22	-0.014190229
216	0x3d48ee44	0.049055353
217	0xbdf03903	-0.11729624
218	0xbe2a3a8e	-0.166239
219	0xbdd4aff7	-0.10385125
220	0x3d903e1f	0.07043099
221	0xbde904dc	-0.1137788
222	0xbd16d9df	-0.03682887
223	0x3d3d341d	0.046192277
224	0x3da79bf4	0.081840426
225	0x3db8f690	0.09031403
226	0x3b940f53	0.0045184284
227	0xbdeb28ab	-0.11482366
228	0x3dc0a716	0.09406869
229	0x3c64ec7f	0.013972401
230	0xb9fad1fb	-0.00047840163
231	0xbdab7438	-0.08371776
232	0xbc0e9e46	-0.0087047275
233	0xbd427766	-0.04747715
234	0x3d8cd73e	0.06876992
235	0x3d4d1ff8	0.050079316
236	0x3d549a6b	0.051905077
237	0x3d382037	0.044952597
238	0xbdb238b2	-0.0870222
239	0xbd8bfd25	-0.06835393
240	0xbd9751cc	-0.073886484
241	0xbd8dd155	-0.069246925
242	0x3d5ad950	0.0534299
243	0xbf49f124	-0.78883576
244	0x3e8d6e64	0.27623284
245	0x3eb59cc1	0.35471156
246	0xbf16a886	-0.58850896
247	0x3e02b370	0.12763762
248	0x3ba17171	0.0049268533
249	0x3e1e6a40	0.15470219
250	0xbe43d12a	-0.19122759
251	0xbe2a5a06	-0.16635904
252	0xbd1775f3	-0.03697772
253	0xbe8034f4	-0.250404
254	0x3c57e55a	0.01317724
255	0xbc328ba6	-0.010897553

conv_block_2.2.bias f4 [10]
0	0x3ef628b9	0.48077944
1	0x3e347a54	0.1762479
2	0x3d50667e	0.050878994
3	0xbe469da7	-0.19396077
4	0xbe7bb902	-0.24582294
5	0x3e1164fe	0.14198682
6	0xbdd1c459	-0.102425285
7	0xbd0d678e	-0.034522586
8	0x3d585f3d	0.0528252
9	0xbe865af4	-0.26241267

classifier.1.weight f4 [10, 490]
0	0x3c2b623c	0.010460433
1	0x3e27fb1c	0.16404384
2	0xbd2da09e	-0.042389505
3	0xbba2d71e	-0.0049694916
4	0xbd0074b1	-0.031361286
5	0x3e697b67	0.2280098
6	0x3e1875d8	0.14888704
7	0x3d6c8c2f	0.057750877
8	0xbced5f22	-0.028976027
9	0x3e20e89b	0.15713732
10	0x3e249a07	0.16074382
11	0x3cc2dac8	0.023785964
12	0x3c632bc3	0.013865414
13	0xbd2404b8	-0.040043563
14	0xbdb14faf	-0.086577766
15	0xbe1b7846	-0.151826
16	0x3e60d536	0.21956334
17	0xbad17f98	-0.001598346
18	0xbd5f7c8e	-0.054562144
19	0x3c50552f	0.012715622
20	0xbdd2dc4d	-0.10295925
21	0xbdebe544	-0.11518338
22	0xbc4d85f6	-0.012544146
23	0x3e63ed5d	0.22258516
24	0xbd5a4ce7	-0.053295996
25	0xbd315fbc	-0.04330419
26	0x3db0c567	0.086314015
27	0xbd308dc6	-0.043103956
28	0xbdf3247e	-0.11872195
29	0xbaf0d6b7	-0.0018374537
30	0x3cd09c70	0.02546522
31	0xbd1a608e	-0.037689738
32	0x3d8581c5	0.06518892
33	0x3d86c129	0.06579811
34	0xbc1dbb22	-0.0096271355
35	0xbd4c6416	-0.049900137
36	0x3c93f3bb	0.018060556
37	0xbcd4e9d3	-0.025990402
38	0x3d1b08a4	0.037850037
39	0xbd4bdca3	-0.049770962
40	0x3cd8b9e0	0.02645582
41	0x3d9aac9b	0.07552453
42	0x3ce79be8	0.028272584
43	0xbd34828a	-0.044069804
44	0xbdb60365	-0.08887366
45	0x3c30f49f	0.01080051
46	0xbdd6e373	-0.10492601
47	0xbd9bd2b7	-0.0760855
48	0x3cb838f7	0.0224881
49	0x3e6459a5	0.22299822
50	0x3dc65ca6	0.0968564
51	0xbdcea51e	-0.10090087
52	0xbe1e7913	-0.15475874
53	0xbcde99a8	-0.027172878
54	0xbe1e71dd	-0.15473123
55	0x3dc7a029	0.09747345
56	0x3e33a6c4	0.17544085
57	0xbdfee900	-0.12446785
58	0xbe586dfa	-0.21135703
59	0xbe403325	-0.1876951
60	0xbbafd97b	-0.005366502
61	0x3e29f2a2	0.16596463
62	0xbd0126d9	-0.03153119
63	0x3d915f24	0.07098225
64	0x3e4fe537	0.20302282
65	0x3c5af053	0.013362962
66	0xbe081445	-0.13288982
67	0xbd8b99aa	-0.068164185
68	0x3e08b200	0.13349152
69	0xbc09f2f2	-0.008419739
70	0x3dc5f6c2	0.09666206
71	0x3c4f75b5	0.012662341
72	0x3dd2a4a0	0.10285306
73	0xbdecd0ad	-0.11563239
74	0xbe16b287	-0.1471654
75	0x3e23a0df	0.15979336
76	0xbdc741a8	-0.0972932
77	0x3d941d53	0.07232156
78	0xbc8ca79d	-0.017169768
79	0x3d10d9de	0.035364024
80	0xbd9a4526	-0.0753272
81	0x3df5f943	0.120104335
82	0x3e0d4355	0.13795216
83	0xbdfb4975	-0.1226987
84	0xbdc3da37	-0.095631056
85	0x3e01c86b	0.1267411
86	0xbe2e0192	-0.16992787
87	0xbe657e21	-0.22411396
88	0xbcb8a553	-0.02253977
89	0xbd16c64a	-0.036810197
90	0x3d7ce5ca	0.06174258
91	0xbd81b8ef	-0.063341014
92	0xbd4d79c0	-0.050164938
93	0x3d7b5366	0.06135883
94	0x3c2a2fd4	0.01038738
95	0x3e0c686a	0.13711706
96	0x3de34bae	0.11098419
97	0x3d957f23	0.0729964
98	0x3d82e6f2	0.063917056
99	0xbd51e119	-0.05124006
100	0x3e67283c	0.22573942
101	0x3dc82bcf	0.09773981
102	0x3e3cadf4	0.18425733
103	0x3e0e0c86	0.13871965
104	0x3b43c2c6	0.0029870733
105	0x3e7189d4	0.23587734
106	0x3df54352	0.11975731
107	0xbd2f48ca	-0.042794026
108	0x3df7b6c9	0.120954104
109	0x3bc9dd75	0.006160433
110	0x3d30521c	0.043047056
111	0x3d610acf	0.05494195
112	0x3e4bf85c	0.1991896
113	0x3e3c248e	0.1837332
114	0x3e32ea53	0.174722
115	0x3d40f81e	0.047111623
116	0x3e28fed6	0.16503462
117	0xbd42c2db	-0.04754911
118	0xbd0b93e3	-0.034076583
119	0x3dc167dd	0.094436385
120	0xbdec875f	-0.115492575
121	0xbdd20a14	-0.102558285
122	0xbdc39521	-0.095499285
123	0xbcc9d75d	-0.024638826
124	0xbc7fa61a	-0.015603567
125	0xbd52606c	-0.051361486
126	0xbd811835	-0.06303445
127	0xbdef7277	-0.11691754
128	0x3d20ba63	0.039240252
129	0xbc76538f	-0.01503457
130	0xbd93461e	-0.07191108
131	0xbd95ae9e	-0.07308696
132	0x3d79c614	0.060979918
133	0x3d6ac330	0.05731505
134	0x3af14f34	0.0018410445
135	0x3da36362	0.0797794
136	0xbdeedc71	-0.116631396
137	0xbd7be19f	-0.061494466
138	0x3c1213e9	0.00891588
139	0x3d4384f5	0.04773422
140	0xbdc0b17a	-0.09408851
141	0x3d0504d1	0.032475296
142	0x3ce282f1	0.027650328
143	0xbe3e27bb	-0.18569843
144	0xbc3d35a6	-0.011548435
145	0xbd57a385	-0.05264618
146	0xbd6bb08a	-0.057541408
147	0x3e517a3c	0.20456785
148	0x3d05fbd0	0.03271085
149	0xbe0d3867	-0.13791047
150	0xbda05dae	-0.07830368
151	0x3d93a2ea	0.07208808
152	0x3d413985	0.047173996
153	0x3d1389f2	0.036020227
154	0x3cbbd21c	0.022927336
155	0xbd69ef72	-0.05711312
156	0xbe2d17ac	-0.16903561
157	0xbda84ad4	-0.08217397
158	0xbaa837be	-0.0012833995
159	0xbe301ce1	-0.17198516
160	0xbe22ec71	-0.15910508
161	0x3cb92e90	0.02260521
162	0x3d820aed	0.0634974
163	0xbe052740	-0.13003254
164	0x3e170bb1	0.14750554
165	0x3c7156d2	0.014730172
166	0xbd449813	-0.04799659
167	0xbb549552	-0.0032437635
168	0x3dec3f61	0.11535526
169	0x3d867dd5	0.06566969
170	0xbcde2f93	-0.027122295
171	0x3dbbe9ca	0.09175451
172	0x3dfb8fcf	0.12283289
173	0x3d9f180d	0.07768259
174	0x3e555a63	0.20835261
175	0x3d5624a4	0.052281037
176	0x3d351888	0.044212848
177	0xbd1a932b	-0.037738007
178	0xbdb4ea44	-0.08833745
179	0xbd7690bc	-0.060196623
180	0x3ceb1f8a	0.028701562
181	0x3e13e56e	0.14442989
182	0xbdac9ae8	-0.084279835
183	0x3e2d7c11	0.16941859
184	0xbd3ffdd4	-0.04687293
185	0xbe374885	-0.17898758
186	0xbddbe610	-0.1073724
187	0xbd86d0f3	-0.06582823
188	0x3e338990	0.17532945
189	0xbdc9f703	-0.09861567
190	0xbd5300bd	-0.051514376
191	0xbe2029a1	-0.1564088
192	0xbde69831	-0.11259497
193	0xbdfa1aaa	-0.12212117
194	0xbde98b8c	-0.114035696
195	0x3e0eaedf	0.13933896
196	0x3c248e5b	0.010043706
197	0x3b6b53b6	0.003590805
198	0xbd04cf39	-0.032424185
199	0xbc9aa694	-0.018878259
200	0x3d17a574	0.037023023
201	0xbb34f4bd	-0.0027611696
202	0x3c8dd856	0.017315071
203	0xbd09ec22	-0.03367246
204	0x3d22681a	0.03965006
205	0x3bd4e609	0.006497149
206	0xbbf94d8a	-0.0076081203
207	0x3c84157f	0.016123531
208	0xbd1756f9	-0.036948178
209	0xbc13463e	-0.008988915
210	0x3d0b8e8c	0.03407149
211	0x3d0d7f10	0.034545004
212	0xbbee07d6	-0.0072641177
213	0x3cf9ac1f	0.030477582
214	0xbc94b169	-0.018151002
215	0x3d7f7a38	0.062372416
216	0x3d8a3d70	0.067499995
217	0x3d224a06	0.039621376
218	0x3c35a321	0.011086256
219	0xbd8e1f17	-0.06939524
220	0x3ca4b25e	0.020104583
221	0x3d8b6263	0.06805875
222	0x3d92a374	0.071600825
223	0x3c32e095	0.010917802
224	0x3c262fd9	0.010143244
225	0x3d78a861	0.060707454
226	0xbd4dbbb8	-0.05022785
227	0xbcf6009f	-0.030029593
228	0xbd23b306	-0.039965652
229	0xbaa7b760	-0.0012795739
230	0x3bb0c04d	0.005394018
231	0x3cfcde5e	0.030867752
232	0xbc8d6c22	-0.017263476
233	0xbc546d8a	-0.012965569
234	0xbc81fc39	-0.01586734
235	0xbcd211db	-0.02564328
236	0x3bb6034c	0.0055545922
237	0xbd429e1c	-0.047514066
238	0xbd1f4063	-0.038879763
239	0xbd3d4084	-0.046204105
240	0x3cf06b45	0.029348025
241	0xbbc6cb1d	-0.0060666935
242	0xbc713766	-0.014722681
243	0xbad80c50	-0.0016483162
244	0xbd0fab09	-0.03507522
245	0xbd0dfc5a	-0.03466449
246	0xbe0b5c93	-0.13609533
247	0x3e4a407f	0.19751166
248	0x3c0f65c1	0.008752287
249	0xbc967c4d	-0.018369818
250	0x3d390958	0.045174927
251	0x3dda5fde	0.106628165
252	0x3d9efd77	0.07763188
253	0x3e7d599b	0.24741213
254	0xbd50d97f	-0.05098867
255	0xbc940b6f	-0.018071858

classifier.1.bias f4 [10]
0	0x3d950633	0.07276573
1	0xbe5bd08b	-0.21466272
2	0x3eb4130f	0.3517079
3	0x3baeff61	0.005340502
4	0xbeb14e54	-0.34630072
5	0xbdfcdec4	-0.12347177
6	0x3dc93e77	0.09826367
7	0x3c95eba3	0.018300837
8	0x3e7315c0	0.23738766
9	0xbe0b6cd0	-0.13615727
